gp_model.pth (torch, 570548 bytes, 92 tensors)

hist_enc.0.weight f4 [32, 48]
000000 f1 41 13 bc 35 35 64 bd f2 ab eb 3d ce 7b 67 3e
       -0.00898789 -0.055714805 0.11507405 0.22605821
000010 6e 39 d9 bd 11 a5 12 3d 50 2b be 3d 6c 1b 0a bd
       -0.10606657 0.03580195 0.09285605 -0.033717558
000020 89 de 28 3c a6 5b 43 3e 0f 6d fc bd b5 5a fc 3d
       0.010306963 0.1907793 -0.12325489 0.123219885
000030 60 6b f8 3d dc 46 4a bd ee 70 9f bd aa ba db 3d
       0.12129855 -0.049383983 -0.077852115 0.10728963
000040 a0 1b ce bd 35 b7 53 3d d6 8e 94 3d 69 0e b1 3d
       -0.10063863 0.05168839 0.07253806 0.08645327
000050 1c ca 16 bd 30 d3 3d be d5 3d 05 3e b7 d8 bd bd
       -0.03681384 -0.18537593 0.13011868 -0.09269851
000060 ee 9a d0 3c bc fa 90 3b a9 39 41 3d 77 e4 4c be
       0.025464501 0.004424421 0.04717413 -0.20009027
000070 9e 39 fb 3d 7f b2 ec 3d ad 67 e6 bd 19 fe 6c 3d
       0.12266849 0.11557483 -0.11250243 0.057859514
000080 ba a5 d1 3d 53 4c 10 bd f2 83 53 bd 1e 24 01 3e
       0.10236688 -0.03522904 -0.051639505 0.12611434
000090 18 31 19 3e 7e 9c 93 bd 2c 49 69 3d 8a 0e 31 be
       0.14960134 -0.07207583 0.056954548 -0.17290702
0000a0 7e db 06 3b a4 fb af bd 2b 55 a9 bd b4 18 a6 bd
       0.0020577605 -0.085929185 -0.082681976 -0.081101805
0000b0 25 8f 01 bd 15 12 6e 3d c7 e8 03 3d 41 5e 78 3d
       -0.031630654 0.058122713 0.032204416 0.060636763
0000c0 5e b8 dc 3c e7 e3 58 3d ba 4d 83 3d 38 41 e5 bd
       0.026943382 0.05295172 0.064113095 -0.1119408
0000d0 6b b4 7f 3d 37 56 83 3d 0a 70 f4 3d 1b 24 ca 3d
       0.06242792 0.064129286 0.11935432 0.09870168
0000e0 4a 15 cf bd d3 ee 2c bd cf 57 39 3d f0 d9 ee bd
       -0.101114824 -0.042219948 0.045249756 -0.11662662
0000f0 bf 4e 15 bd b8 67 dd 3d cf 7f 2b 3e d2 fc 11 bd
       -0.03645205 0.108107984 0.16747974 -0.0356415
000100 db 61 a7 3c 4d e5 ab 3d 15 bc c1 3d 0b c3 0b 3e
       0.020432403 0.08393345 0.09459702 0.13648622
000110 47 cd 3c bd 1e cc fc 3c 35 b5 6d bd c5 2c cd bd
       -0.046094205 0.03085905 -0.05803414 -0.10018305
000120 12 9a ad 3d 54 d8 16 bd 44 5e b3 bd f6 fe a4 bd
       0.08476652 -0.0368274 -0.08758214 -0.080564424
000130 58 35 f2 3d 97 70 d9 bd c3 7d 63 3d 24 81 35 3e
       0.11826581 -0.10617178 0.055539858 0.17725044
000140 21 d5 91 bd 6d cf 9a bc a8 b3 95 bd 51 04 12 be
       -0.07120729 -0.018897736 -0.07309657 -0.14259459
000150 cf db f5 bd c7 7f 39 3e 4b 60 85 bd 45 bb bd bd
       -0.12004816 0.1811515 -0.06512507 -0.092642345
000160 22 d5 95 3c 96 43 dc bd 92 e8 55 3d 20 5b d0 3d
       0.018290106 -0.107550785 0.05222375 0.10173631
000170 84 d4 06 3e 80 a3 f5 bd f3 29 f3 3c 1d d0 9c bd
       0.13167006 -0.11994076 0.029683089 -0.07656882
000180 59 f6 7f 3d fe 79 13 3e 1a 74 6a bd d3 99 1a be
       0.062490795 0.14402005 -0.05723963 -0.15097742
000190 88 da 8b bd 8d f5 db 3d 6e 3b 2f bd e2 6f e1 3d
       -0.06828791 0.107401945 -0.042781286 0.11007668
0001a0 45 f3 01 3d fb 03 24 be ee a7 2c 3d cd 5a b3 3d
       0.03172614 -0.16017143 0.042152338 0.08757553
0001b0 68 99 8f 3d bd fd 01 bc 57 b7 1f 3d c2 53 44 3d
       0.07011682 -0.007934031 0.038993206 0.04793144
0001c0 1e 18 9a bd 71 29 c7 bd 53 73 ac bd b2 05 c3 3d
       -0.07524131 -0.09724701 -0.08420434 0.09522571
0001d0 1c e2 a3 bd 3d 35 16 3d 4d e2 1b bc a4 10 8c bc
       -0.08002111 0.036671866 -0.0095144035 -0.017097779
0001e0 d9 9d c4 bd 29 57 e5 3d b9 7e a0 bd 98 e5 a3 bd
       -0.096004196 0.11198265 -0.078366704 -0.08002776
0001f0 49 18 d4 3b 98 b4 5f 3c 4e ab 93 3d c1 63 a9 3d
       0.0064726216 0.013653897 0.07210408 0.0827098
000200 62 a8 b5 3d 5d 1e 08 bd 71 b2 7c 3c 75 f1 8b 3d
       0.08870007 -0.03323208 0.015423403 0.06833164
000210 f9 d3 29 be b8 92 53 bd cf b9 5b bd b8 ea b2 bd
       -0.16584767 -0.051653594 -0.053643998 -0.08736175
000220 d7 01 8e 3a 7e e8 f2 bb f7 a0 ec bd 0e a9 16 be
       0.0010834289 -0.007412969 -0.11554139 -0.14712927
000230 34 58 e9 bc 88 54 5f bd 56 92 e1 bd 6b 41 b7 bd
       -0.028484441 -0.054523975 -0.110142395 -0.08948024
000240 c0 b0 d4 bc 85 0a 9b ba e8 e4 26 bd 7b a0 39 3d
       -0.025963187 -0.0011828697 -0.040745646 0.04531906
000250 b8 7d 97 bc a7 96 a3 3d ac af 5f 3e da 97 fc b9
       -0.018492565 0.07987719 0.21844357 -0.00048178324
000260 83 2d 36 3d 37 20 a2 3d b0 a1 2d bc b6 fb 08 3d
       0.044476997 0.07916301 -0.010597631 0.033443175
000270 fe 27 21 3c de 00 32 bc 35 b3 ce 3d 95 98 82 bd
       0.009836195 -0.010864465 0.10092775 -0.06376759
000280 ac 8b d3 bd 40 27 ff 3d ed b6 c6 3d f1 fa 13 3e
       -0.10329375 0.12458658 0.09702859 0.14451195
000290 e1 14 5e 3d a5 ad 81 bb 6a 3e aa 3b da 9a 0f be
       0.05421913 -0.0039574676 0.0051954286 -0.14023915
0002a0 c5 88 b4 3c f8 28 b9 bd 37 ef f3 bc cf e3 c9 3c
       0.022037873 -0.09041017 -0.029777152 0.02464476
0002b0 bd 58 b7 3c 6a 3d f6 bd 4a 09 8a bd 49 f4 f7 3d
       0.02238118 -0.120234326 -0.06740053 0.121071406
0002c0 71 8d 90 3d e2 68 94 bd 9f 6d 4c 3d ec 33 65 bd
       0.07058228 -0.07246567 0.04990923 -0.05595772
0002d0 5d da 24 3d a5 31 e8 3c 3a ef a6 bd ef 30 39 3e
       0.04024731 0.028343985 -0.081510976 0.18085073
0002e0 61 a6 e9 3c 04 bb c3 bd 19 18 ae 3d e2 4d 00 3e
       0.028521718 -0.09557155 0.0850069 0.1252971
0002f0 c2 f4 41 3d fc c2 c7 bb 29 06 76 bc ee 91 3e 3d
       0.04735256 -0.006096242 -0.015016117 0.04652589
000300 cb 51 d5 3c e8 31 02 be b3 7f f9 3d 82 e0 a3 3d
       0.026039978 -0.1271435 0.1218256 0.08001806
000310 9f 39 14 3e 4d bc 93 bd 98 5e e0 3b ea f0 3f bd
       0.14475106 -0.0721365 0.006847214 -0.046860613
000320 c8 d7 07 3d f1 7f 71 bd 47 22 8e 3c 73 83 61 bd
       0.03316477 -0.058959905 0.01735033 -0.055057
000330 a5 58 4f 3d 9b f7 62 3c dd b5 6c bc a9 d4 00 3d
       0.050621647 0.013852979 -0.014447656 0.03145281
000340 82 73 05 3e 08 dc b5 bd 32 cf 7f 3d 21 18 e3 3d
       0.13032344 -0.08879858 0.062453456 0.110885866
000350 b6 11 a1 bd f3 76 a6 bd 0e 04 17 bc 64 f5 b4 3d
       -0.07864706 -0.081281565 -0.009217275 0.08835867
000360 b1 c3 19 bd 73 33 07 3e f2 51 47 3c 28 42 8e 3c
       -0.03754014 0.1320322 0.012165533 0.01736553
000370 64 18 dc b9 a1 43 ce 3d 54 6f 6c 3d e8 fe 0d bd
       -0.00041979842 0.10071493 0.05772336 -0.034666926
000380 7d 2c e4 3d f8 ae 9a 3d 5e d8 bc 3d 3f 93 76 3b
       0.11141298 0.07552904 0.09220956 0.0037624387
000390 fe 1e ca 3d 77 5a b1 3c 02 65 cd 3d 2e 50 f1 bd
       0.098691925 0.021649582 0.10029031 -0.11782871
0003a0 19 37 01 be b8 41 17 bd 9f 6c a9 bd 98 05 e5 3d
       -0.12618674 -0.03692791 -0.08272671 0.111827075
0003b0 53 e3 dc bb 7d 0c 0f 3d 69 d6 06 3e 6b 65 f4 bc
       -0.0067409663 0.03492402 0.13167728 -0.029833516
0003c0 3a 8d 0e 3e 67 4c 8f 3d a1 0d 45 be 8c 48 8b bd
       0.13921061 0.069969945 -0.1924348 -0.068009466
0003d0 0c fd ef bd 9e f9 c0 3d 5d 47 2a 3e e2 b8 b9 bd
       -0.11718187 0.09422611 0.16628785 -0.09068467
0003e0 63 a4 c8 bd b6 1d 45 be 98 03 4e be c5 03 06 bd
       -0.09796979 -0.19249615 -0.20118558 -0.03271844
0003f0 35 1b 24 3d e6 51 a7 bd 11 7e d8 3d 7b d9 24 3d
       0.04006501 -0.08169918 0.1057092 0.040246468

hist_enc.0.bias f4 [32]
000000 d6 57 9d be 84 88 55 be ce 9c 57 be e6 92 37 bd
       -0.30731076 -0.20852858 -0.2105591 -0.044817828
000010 c2 57 1b be ff 48 53 3c 8c a3 5d be 23 b2 d3 be
       -0.15170196 0.012895822 -0.2164442 -0.41346845
000020 75 c4 ac be fe 88 8c 3c 7a b6 c4 bd 01 8d 8c bd
       -0.33743635 0.017155167 -0.09605117 -0.06862832
000030 59 34 b7 be 11 fd 1d be 26 1f 49 bd 2c 04 18 be
       -0.35782126 -0.15428568 -0.04910197 -0.14845341
000040 ed 96 16 be 50 b8 1d be d3 b0 88 be a6 94 5f bd
       -0.14706011 -0.15402341 -0.26697406 -0.05458512
000050 51 77 75 3d a5 fe 39 be df d2 6f bd ff 04 2b 3d
       0.059928242 -0.18163545 -0.05855071 0.04175281
000060 90 82 b2 bd be 85 e8 bd e7 ff e9 bc 57 ea 90 be
       -0.08716309 -0.11353634 -0.028564407 -0.28303787
000070 58 68 11 be ea 48 b8 be 02 ec b1 be cd 45 fc bd
       -0.1419996 -0.3599313 -0.34750372 -0.12318001

hist_enc.3.weight f4 [32]
000000 71 6e 7e 3f 83 b3 77 3f d8 b8 74 3f e6 73 72 3f
       0.9938727 0.9675829 0.9559455 0.94708097
000010 0e 75 65 3f 69 55 74 3f c6 03 77 3f 1d 3b 7c 3f
       0.89631736 0.95442826 0.9649013 0.985277
000020 a9 92 72 3f 88 4d 6f 3f c0 e4 70 3f ca 26 70 3f
       0.94755036 0.9347768 0.94099045 0.9380919
000030 d4 c5 81 3f ff 80 6e 3f 8b b4 78 3f 13 85 73 3f
       1.0138497 0.9316558 0.97150487 0.9512493
000040 a9 0d 71 3f 94 63 75 3f 38 62 71 3f bd d4 72 3f
       0.9416147 0.9585507 0.94290495 0.9485586
000050 88 ac 71 3f e9 ec 70 3f 4d 75 73 3f ff a2 6a 3f
       0.94403887 0.94111496 0.9510086 0.9165496
000060 17 09 73 3f 80 5f 6d 3f 32 49 71 3f 5f 25 7c 3f
       0.94935745 0.92723846 0.9425231 0.98494524
000070 2c 55 68 3f 27 0e 6c 3f f7 fa 6c 3f 02 44 6d 3f
       0.9075496 0.92209095 0.9257044 0.92681897

hist_enc.3.bias f4 [32]
000000 4a a3 58 bc a7 ed c9 3c 9a a6 e3 bc 0b 35 d1 3c
       -0.013222525 0.024649454 -0.027789403 0.025537988
000010 a8 ac b8 bc 0e 99 ac 3b cd 5b e7 3c 28 7d 73 bb
       -0.022543266 0.005267269 0.028242016 -0.0037153456
000020 96 72 01 bd c6 38 b5 b9 d7 97 2b bd d7 06 62 bd
       -0.03160342 -0.0003456531 -0.041892853 -0.055182304
000030 8a 53 69 37 57 54 8c bc ef 8a 08 3d ab be 80 bc
       1.3907333e-05 -0.01713006 0.033335622 -0.015715918
000040 c6 7a 26 3c 42 87 04 3b 55 5e 7f bd 21 44 13 bd
       0.010161107 0.0020222222 -0.06234582 -0.035953645
000050 7e 04 cd bc f5 2f 42 3d 2c 61 31 3b da f3 0f 3b
       -0.025026556 0.047409017 0.0027065976 0.0021965415
000060 e6 02 a1 bc be 56 b2 3a 2a ea 77 3c db f0 9f bb
       -0.019654702 0.0013606173 0.015131513 -0.004881007
000070 2b 06 13 bc 8a 9c bd bc a0 9c 03 bc 69 f3 d2 bc
       -0.0089736385 -0.023145933 -0.008032948 -0.025750833

hist_enc.3.running_mean f4 [32]
000000 e4 96 26 3e 0a f6 39 3e 50 25 86 3f ad af 5c 3e
       0.16268498 0.18160263 1.0480137 0.2155139
000010 94 c4 97 3d d2 94 c9 3e d9 9b a4 3e e5 d5 1e 3e
       0.07410541 0.39371353 0.32150152 0.15511282
000020 58 db 3e 3e 2d ec 4d 3f 3d 84 6a 3e 25 b8 75 3e
       0.1863836 0.804385 0.22902007 0.23996027
000030 aa e5 e5 3d ef f8 b5 3f c2 92 9c 3e a1 97 af 3e
       0.112254456 1.4216594 0.30580717 0.3429537
000040 b2 79 32 3f 7e 15 88 3e eb 8f 85 3c b2 01 2d 3e
       0.6971694 0.26578897 0.016303977 0.16895178
000050 3a 42 c7 3e ff 28 aa 3e f0 7e 97 3e 3f 96 25 3f
       0.38917714 0.33234403 0.29589033 0.6468238
000060 30 57 89 3f ba c2 cf 3e 6d 6b 08 3f 2a 51 8a 3d
       1.0729733 0.40578252 0.5328892 0.06753762
000070 e7 cf 2b 3e 0f 26 b4 3d c1 3a dc 3c 24 7d 27 3e
       0.16778527 0.087963216 0.026883485 0.16356331

hist_enc.3.running_var f4 [32]
000000 c2 fe 09 3f af 33 9e 3e c5 df fa 3f 22 1c 99 3e
       0.53904355 0.30898806 1.9599539 0.29904276
000010 31 7d 6b 3d 41 7f 23 3f 8a 0a 22 3f f4 db 1c 3e
       0.05749244 0.6386605 0.6329733 0.1531828
000020 90 f6 6c 3e 77 de ad 3f 36 57 8f 3e 08 3b ad 3e
       0.23140931 1.3583516 0.27996224 0.338341
000030 f1 06 91 3e 57 c4 75 40 66 12 1b 3f 4f 00 a0 3f
       0.28325608 3.8401086 0.6057495 1.2500094
000040 45 1e 1b 40 fc 8f bd 3e 45 0e c8 3b 8b 9c 85 3e
       2.4237225 0.37023914 0.0061052167 0.26095995
000050 cc bb 10 3f 0f 32 32 3f 7f 78 04 3f 9b 47 b1 3f
       0.56536555 0.69607633 0.5174636 1.3849977
000060 d9 ac 10 40 51 45 3a 3f 24 8a a0 3f cc 0e 15 3e
       2.2605498 0.7276202 1.2542157 0.14556426
000070 a1 48 75 3e 9f 4b 95 3d bf 7e ac 3c 21 40 23 3e
       0.23953487 0.07289814 0.021056531 0.15942432

hist_enc.4.weight f4 [64, 32]
000000 98 86 0d 3e 88 50 29 3d b2 89 23 3e b6 9c 18 3c
       0.13820875 0.041336566 0.15970495 0.009314707
000010 35 43 67 3d 75 c1 be bc ce be ea 3d b3 af 3b 3b
       0.056460578 -0.023285607 0.11462174 0.002863866
000020 7b ce d6 bc db 94 b3 bd f6 c7 d8 3d 88 0c 29 3e
       -0.026221504 -0.08768626 0.105850145 0.16508687
000030 a3 16 f4 bd 5f d4 02 be f7 da 05 3e ae e1 21 be
       -0.1191838 -0.12776326 0.1307181 -0.15808746
000040 78 80 07 3d ab 27 69 bc 12 04 f5 3d d3 f1 50 bd
       0.0330815 -0.014230649 0.11963667 -0.05101187
000050 22 e5 9d 3d 45 9f 0b 3e 5b a3 1a bc bf d1 81 3c
       0.07709719 0.13634975 -0.009438361 0.015847085
000060 77 56 14 be e4 f4 51 3b 23 c9 31 3d d4 cc 3c 3d
       -0.14486109 0.0032036835 0.04340471 0.046093777
000070 b6 d6 4d 3d ac 88 21 bd a0 3a 98 bd 20 a6 2a 3b
       0.050253592 -0.03943698 -0.07433057 0.002603896
000080 a4 85 83 3d 8c 0a 4b bd 39 50 25 be 45 15 b1 bd
       0.06421974 -0.049570605 -0.16143884 -0.08646635
000090 a4 5f 52 bd fb 34 28 3d ea 51 c0 3d 11 67 1c 3e
       -0.05136074 0.04106615 0.09390624 0.15273692
0000a0 83 b0 df bc bb 54 c0 bc fc a3 20 be 9b 46 f4 bd
       -0.027305847 -0.023477903 -0.15687555 -0.119275294
0000b0 20 4e 25 3e 4f cc 20 bb 51 e4 a0 3d 5a 55 99 3d
       0.16143084 -0.002453584 0.07856048 0.07486983
0000c0 2d 6f ad bd e6 d6 0f 3c 84 b4 08 3e 2d 9a 4d bd
       -0.08468471 0.008779263 0.13350111 -0.05019586
0000d0 ee c3 fd 3d c6 ce 0f bc e1 35 ab bd b3 8e db bc
       0.12390886 -0.008777326 -0.08359886 -0.026801443
0000e0 f2 89 fb bd 0d 1b 3c bd dc 96 00 bd 48 b5 5d bd
       -0.1228217 -0.045924235 -0.03139387 -0.05412796
0000f0 b1 74 0e be 70 99 8c bc 06 3a bc bd 5d db 71 bd
       -0.13911702 -0.017163008 -0.091907546 -0.05904709
000100 c1 05 27 bd 9e 6a 98 bd 14 f4 37 bd 1b 15 84 bd
       -0.04077697 -0.074422106 -0.044910505 -0.06449338
000110 80 75 88 bc 7d 95 d5 bd f2 ce 45 3d 8c c7 14 bd
       -0.01665759 -0.10428903 0.04829306 -0.036323115
000120 03 7f ca bd 79 fc 9d 3d fd 55 08 3e 2d 97 00 3d
       -0.09887507 0.07714171 0.13314052 0.031394172
000130 17 7b 56 3c da 0e d5 bc db b6 ea 3b 6c 90 b9 3d
       0.01309087 -0.026008058 0.0071629114 0.090607494
000140 1b c6 af 3d b5 97 1b bc e6 d0 fb bd f9 09 36 be
       0.085827075 -0.009496619 -0.122957036 -0.17777242
000150 57 cb ce 3d c7 10 97 3d c6 1a e6 3d fd 04 8c 3d
       0.10097378 0.07376247 0.112355754 0.06836889
000160 da 2d d6 bd 6b 43 86 bd 14 99 09 3e 4b ca 0c 3d
       -0.10457964 -0.06555828 0.13437301 0.03437261
000170 7e ab c1 3d 7f 1e f1 bd 24 a6 84 bd 2d 9b c6 3d
       0.09456538 -0.11773395 -0.06477001 0.09697566
000180 9d a4 ab bd 6e 9b 94 3d b7 63 34 be ef f0 c2 3d
       -0.08381007 0.07256208 -0.17616163 0.09518611
000190 ea f7 73 bc 96 ff 81 3d 8f 67 f9 3d 23 cd 56 3c
       -0.01489065 0.06347577 0.12177955 0.013110432
0001a0 e3 72 19 be 77 4c fa 3d 3c 6b 46 3d d2 0a 8c bd
       -0.14985232 0.12221616 0.04844211 -0.06838001
0001b0 86 8c 0c 3c 14 c0 da 3c 48 9b 56 bd 6e 69 66 bc
       0.008578425 0.026702918 -0.05239418 -0.014063222
0001c0 68 a0 0f be 0c 3c 1f bb a4 ca 42 bd 5c f9 73 3b
       -0.14026034 -0.0024297265 -0.047556534 0.0037227487
0001d0 c1 01 b1 3d a5 81 df 3d 0f 71 f4 3d 0b 54 1a be
       0.08642913 0.109133996 0.11935627 -0.15071122
0001e0 45 2f 9a 3d 9a dd ff 3d 0f 3d ee bd ed 2f 99 3d
       0.07528547 0.12493439 -0.1163274 0.07479844
0001f0 be f2 df bc 8b 3a 84 bd 3c 21 94 3d ee e4 a3 bd
       -0.027337428 -0.06456479 0.072329015 -0.08002649
000200 38 db c5 bc ad a4 8d 3c 47 31 10 bd ea f6 e2 bd
       -0.024152383 0.017290438 -0.035203245 -0.11082251
000210 ed d2 a3 3c 66 d5 93 3c 70 9c cf bd 2a cc b8 3c
       0.019998038 0.018046092 -0.1013726 0.02255829
000220 31 60 96 3d ac 02 5e 3c cc d3 aa 3d 67 40 df 3d
       0.07342566 0.013550442 0.08341178 0.10900956
000230 cd d1 ec 3d 57 84 51 3d 2e aa 88 bd 89 66 0c bd
       0.11563454 0.0511516 -0.06673084 -0.034277473
000240 b3 92 82 3d 30 86 ac 3b af d2 07 be c7 c0 12 be
       0.06375637 0.00526502 -0.13263963 -0.14331351
000250 21 dc 6f bb e5 3e 05 be 7b f9 3f bc c5 c1 04 3e
       -0.0036599713 -0.13012274 -0.011717196 0.12964542
000260 3e 09 39 bd 98 95 14 be 0b a5 18 be 58 69 80 bd
       -0.04517483 -0.1451019 -0.14906709 -0.06270093
000270 1b 12 d4 3d be 34 e1 bd fe 56 87 3d 7d 7f 0f be
       0.10355016 -0.10996388 0.06608389 -0.14013477
000280 ba 0a 94 bd 1a a5 7a 3d d4 c1 1a bd d5 06 bb 3d
       -0.072286084 0.06119261 -0.037782505 0.091321625
000290 4e af 5c bd 45 b5 46 3e d6 06 69 3d bf e0 b9 bd
       -0.05387812 0.19405086 0.056891285 -0.0907607
0002a0 54 b2 d7 b9 02 d8 e1 3d 5c e1 df bd 7c a7 89 bd
       -0.0004114086 0.11027528 -0.10931656 -0.06721398
0002b0 4c e7 97 3d 64 8a 76 3b b1 ee be 3d 69 ee df bd
       0.07417163 0.0037619108 0.093228705 -0.10934145
0002c0 bb c0 5c 3d 80 98 5e 3c af ba 71 bc 4b 6c 56 3d
       0.05389474 0.0135861635 -0.0147539815 0.05234937
0002d0 41 46 86 3d 99 6c 1e 3e 0b 66 34 bd 7d 03 c1 3d
       0.065563686 0.15471114 -0.04404263 0.094244935
0002e0 98 1b 64 3d 8c 7b 05 be a9 13 1b 3e 0f ef dc 3b
       0.055690378 -0.1303541 0.15144219 0.006742365
0002f0 42 b5 5b 3d c5 1f 94 3d 07 7c 9d 3c 91 f2 11 be
       0.053639658 0.07232622 0.01922418 -0.14252688
000300 c8 8e 2d 3d de ac 8d 3d e6 2d 11 be 12 a8 6b 3d
       0.042372495 0.069177374 -0.14177665 0.05753333
000310 ff 9f 12 be 6b ef e4 3d e8 7e fe 3d 1f aa 87 bd
       -0.14318846 0.11178478 0.12426549 -0.06624245
000320 3c 4a 11 bd 6c 90 1e bd 9f ac c9 bd 0c 1a 33 be
       -0.035471186 -0.03871195 -0.09847378 -0.17490405
000330 4b 3a 9b 3c af b1 5b 3d 21 05 8a bc 5e de e8 3d
       0.018948695 0.05363625 -0.016848149 0.11370538
000340 88 8f 19 bd 64 c4 0a be fd 43 ee 3d 7a bb f3 3a
       -0.037490398 -0.1355148 0.116340615 0.0018595301
000350 5f 35 10 3e 42 96 21 be 57 d2 f7 3c 79 5a 09 3e
       0.1408286 -0.15779975 0.030251665 0.13413419
000360 70 18 f4 bd 0b e6 9e bd 1d 1f 06 be 3e fb 2c 3d
       -0.119187236 -0.07758721 -0.13097806 0.04223179
000370 b0 2d 85 3d 6c 02 c4 bd d1 2c 32 be db 13 06 3d
       0.06502855 -0.095707744 -0.17399909 0.03273378
000380 7e b1 00 bd 0d 35 63 3d e8 5d 1a be 68 f7 22 be
       -0.03141927 0.055470515 -0.15074885 -0.1591469
000390 62 0a de bd 12 a4 62 bd de f1 b7 bd 12 ab d8 3d
       -0.10841824 -0.05533225 -0.089816794 0.10579504
0003a0 eb 97 54 3d 8a bd c6 bc 4c a4 ee bd 0a 4b c0 bd
       0.051902693 -0.024260301 -0.11652431 -0.093893126
0003b0 37 23 f9 3b a8 35 77 bd 3b df e7 bc bf d7 21 be
       0.007603075 -0.060353905 -0.028304687 -0.15804957
0003c0 ad bb dc 3d 0f 6b e4 3c bc 5c 13 be af f5 17 bd
       0.10777984 0.02788308 -0.14390844 -0.037099537
0003d0 43 e9 68 3d f5 bb 10 3e 17 4b b9 3d e3 06 95 bd
       0.05686308 0.141342 0.090475254 -0.07276704
0003e0 8e 37 a2 bc ba 64 35 be 06 f5 e2 bd 5d f0 88 3d
       -0.019801881 -0.17714205 -0.11081891 0.06686471
0003f0 81 10 a3 bd 24 61 42 bd 0d 74 f3 3d 3e e1 8b 3d
       -0.07962132 -0.04745592 0.11887369 0.06830071

hist_enc.4.bias f4 [64]
000000 3f e9 53 3d 88 d3 07 3e d3 35 1b 3e 5f 9b cb 3d
       0.051736113 0.13264287 0.15157251 0.09941744
000010 1a 2e 9b 3d bf 10 e1 bd f2 da 06 3d cd bf 65 bc
       0.075771526 -0.10989522 0.032923646 -0.01402278
000020 85 3e 13 3e 7b 20 58 bc d8 01 b3 bd 0e 08 d0 bd
       0.14379318 -0.013191338 -0.08740586 -0.10157786
000030 09 77 06 bd 59 82 d7 3d bb 27 1c 3e ff 24 eb bd
       -0.032828365 0.10522909 0.15249531 -0.11481666
000040 82 a7 11 be ef a0 92 bd 1b 40 a2 3d 41 e4 d1 3d
       -0.14224055 -0.07159602 0.079223834 0.10248614
000050 00 eb c8 bd 05 16 a2 bb 8f ae c3 bc 76 d4 44 bc
       -0.09810448 -0.0049464726 -0.023886947 -0.012013545
000060 2f 71 18 3e 7f ed 09 be f7 a9 9f bc eb ea e0 3d
       0.14886926 -0.13469504 -0.019490225 0.10982307
000070 84 c6 0a be d3 3d 61 be a0 4d d3 3d 81 f7 2f 3e
       -0.1355229 -0.2199624 0.1031754 0.17184259
000080 75 7d 00 3e 4d 94 a4 3d 39 6a b2 bd d2 94 87 bd
       0.12547858 0.08036099 -0.087116666 -0.06620182
000090 d0 a4 05 be d8 c1 eb bc f0 76 2d 3d 6f d9 54 3d
       -0.13051152 -0.028778955 0.042349756 0.051965173
0000a0 06 ab e5 3d 44 fc e0 3d 06 c0 ce 3d 88 fc db bc
       0.11214261 0.10985616 0.10095219 -0.026853815
0000b0 38 8e 1f 3e 6b 7f 0c be c7 3c 31 be ec 3e 3e be
       0.15581596 -0.13720481 -0.17308341 -0.1857869
0000c0 56 46 13 3e 98 bd cf 3c f2 6b 0c 3c fb 90 4a 3d
       0.143823 0.02535896 0.008570658 0.04945467
0000d0 65 6f 21 bd f5 43 da 3b 75 81 52 bd 30 58 f9 bd
       -0.039412875 0.006660933 -0.05139299 -0.121750236
0000e0 f0 ee 64 3d b8 70 60 3d 94 63 f6 3d 9d 26 cd bd
       0.05589193 0.054794997 0.12030712 -0.100171305
0000f0 db ad 86 3d 82 94 a1 3c 69 a6 90 bd 5a af d4 bd
       0.06576129 0.019724134 -0.0706299 -0.10385008

att.in_proj_weight f4 [192, 64]
000000 b1 ee 01 3e 43 d1 27 be bd 0a 51 bd 84 61 97 bd
       0.1268871 -0.16388421 -0.05103563 -0.073916465
000010 34 36 80 3d ad 80 ab bd b3 3a 90 bd c4 94 de bd
       0.062603384 -0.08374152 -0.07042446 -0.108682185
000020 0f 12 95 3c 90 19 6a 3d af 74 1c be 8c 8c 15 3d
       0.018197088 0.057153285 -0.15278886 0.03651099
000030 42 ed 55 bd 2f a5 17 3e b5 4f e7 bd ec cc 97 bd
       -0.05222822 0.14809106 -0.112945 -0.074121326
000040 a4 86 b2 bc 54 8d 4a 3d a8 d9 05 3e 40 bf 45 3d
       -0.021792717 0.049451187 0.1307131 0.048278093
000050 d6 b8 b1 bd 97 95 51 bd 08 a3 84 bd 6f aa 13 3e
       -0.08677833 -0.05116805 -0.06476408 0.14420484
000060 2d 12 e9 bc 47 ec ce 3c e5 fc aa 3d ec c3 11 be
       -0.02845105 0.02525915 0.08349017 -0.14234895
000070 20 39 db 3d c1 72 58 bc 84 27 31 bd 40 0a bf 3d
       0.10704255 -0.013210953 -0.043250576 0.09328127
000080 ec 5e 25 bd 79 c1 5e bd 21 1e 8e bd 9c 52 41 3d
       -0.040373728 -0.05438373 -0.069393404 0.047197923
000090 e7 82 29 bb 04 bc ee bd 54 bc 9c bd 54 d6 55 bd
       -0.0025865377 -0.11656955 -0.07653108 -0.052206352
0000a0 db c8 ac 3c e7 ba 56 3d 42 5d 73 3d c6 ee 1b bc
       0.02109187 0.052424338 0.05941511 -0.009517377
0000b0 2e 6a c7 3c ec 5d 06 be bf 0f 02 3d 46 61 7f 3c
       0.024342623 -0.13121766 0.031753298 0.015587157
0000c0 e8 23 4f bb 02 d8 92 bb 30 92 4a 3c 77 62 1c 3e
       -0.0031607095 -0.0044813165 0.012363955 0.15271936
0000d0 03 83 16 be b7 f9 23 be 6d a4 79 3c 8f 53 9c bd
       -0.14698415 -0.16013227 0.015236956 -0.07633125
0000e0 11 66 c6 bd f0 ec 31 3e 7a 92 83 bd 6f 51 5d 3c
       -0.09687436 0.1737554 -0.064244226 0.013508185
0000f0 62 45 b0 3d e1 dc c5 3d b2 89 04 be 12 1c 51 3b
       0.08606984 0.0966127 -0.12943152 0.00319076
000100 fe 0a bc 3d ac 71 f7 bd 1d f7 90 3d 8c b7 bc bd
       0.09181784 -0.12082228 0.07078383 -0.09214696
000110 18 34 8a bd 20 8f f7 3d df d5 e2 bd dc f7 1d 3e
       -0.06748217 0.12087846 -0.11075949 0.15426582
000120 49 37 47 bc ec 16 ed bc 01 6d 0a 3e e3 bc c6 3c
       -0.012159177 -0.028941594 0.13518144 0.02425999
000130 02 99 a6 bd 2e d7 96 bd d7 25 08 bd 33 ea de 3d
       -0.08134653 -0.07365261 -0.033239212 0.10884514
000140 b9 d4 e6 bc fc d3 61 3d eb f9 94 3d 6a 81 cc 3d
       -0.028177606 0.055133805 0.072742306 0.09985621
000150 58 9c 8d bd 26 74 a7 bd 20 43 64 3a ab 59 cf bd
       -0.06914586 -0.081764504 0.0008707512 -0.10124525
000160 74 f0 58 bd fa 29 17 be 63 e6 1c 3d e5 e1 83 3d
       -0.05296369 -0.14762107 0.03830565 0.0643957
000170 f3 66 80 3d 4b 96 bb bd e8 50 cf bd 4c e6 a3 3c
       0.06269636 -0.091595255 -0.101228535 0.020007275
000180 9f 15 1e bd 8f 67 71 bd 21 51 df 3d b4 e7 d9 bc
       -0.03859484 -0.05893665 0.10904146 -0.026599742
000190 ba 2d da bd db ad 8b 3d 9b 8a be 3d 46 fd cd 3c
       -0.10653253 0.0682027 0.09303781 0.025145184
0001a0 cf 34 13 3e ae ab 99 bb 4a 73 ea 3d ab d7 10 be
       0.14375614 -0.0046896553 0.11447771 -0.14144771
0001b0 25 4f b8 3d 91 c8 13 bd e5 84 08 bd 54 ba 05 3e
       0.089994706 -0.036079947 -0.033329863 0.1305936
0001c0 75 e6 e7 bb 20 7d bd 3d 52 96 23 bb 83 c9 b4 bd
       -0.007077033 0.09252381 -0.0024961424 -0.08827498
0001d0 ad 62 b3 3b b5 48 08 be 77 a4 26 bd e6 d1 03 3e
       0.0054744096 -0.13308986 -0.04068419 0.12873039
0001e0 7a 3d 0a 3e b7 b1 ea bd 6f 53 99 bd 60 0d 62 bd
       0.13500014 -0.11459678 -0.07486617 -0.055188537
0001f0 e7 d9 9d bd 96 b6 2e 3d 44 18 db 3d 59 00 dc bd
       -0.07707577 0.042654596 0.10697988 -0.10742254
000200 36 66 78 bb 06 cd b9 bd e1 5b 65 3d 89 3d 0b bd
       -0.003790272 -0.09072308 0.055995826 -0.03399423
000210 55 a9 dc 3c e1 c3 a2 3d 98 11 00 3e 73 9d b2 bc
       0.026936213 0.07947517 0.12506711 -0.021803593
000220 9e a1 55 3d 56 a6 54 3d 22 55 44 bc 78 a1 96 bc
       0.052156083 0.051916443 -0.011983188 -0.018387541
000230 2f 68 aa bd 4d f1 07 3e 3c 44 77 3c 2e e2 b1 bd
       -0.08320653 0.13275643 0.015091952 -0.086857185
000240 d3 19 f8 bd 89 bd c4 bd d6 32 21 bd 29 ec f9 3c
       -0.121143006 -0.096064635 -0.03935512 0.030508118
000250 9c c0 88 bd da 9f f2 3d d4 d7 39 3d 97 10 2e 3d
       -0.06677362 0.118468955 0.045371845 0.04249629
000260 84 1a ec bd fe 44 d0 bc 7c f6 ff 3d 74 4c bd 3c
       -0.11528495 -0.025423523 0.12498185 0.023107745
000270 bc bb 12 3d 26 9f 4e bd 8e 92 04 3c 42 41 18 3d
       0.03582357 -0.050444745 0.008091582 0.03717161
000280 63 4a f8 3b 97 de ee 3c 08 f9 46 3d 02 da a8 bc
       0.007577227 0.029158873 0.04857734 -0.020611767
000290 1d e3 1b 3d 08 10 1c 3d 73 87 fd bd d9 cd 4f bc
       0.03805839 0.038101226 -0.123793505 -0.012683355
0002a0 f0 e1 d8 3d 90 db de bd 1c 71 e7 3c 48 23 e9 3c
       0.10589969 -0.10881722 0.028252177 0.028459206
0002b0 d6 97 bd bd 31 23 1a be b5 3e 57 bc 74 4c 2d 3e
       -0.09257476 -0.15052487 -0.013137509 0.16923696
0002c0 69 d9 f6 3d a3 38 49 bd 6c 82 db bd 7f 93 a2 bd
       0.120531864 -0.04912628 -0.107182354 -0.07938289
0002d0 fc 3f 6e bb e0 79 7d 3b 04 99 e3 bd 0c 43 da bd
       -0.0036354056 0.003867738 -0.1111317 -0.106573194
0002e0 37 96 84 3d a6 19 d1 bd 7d da 0e 3e 5a c5 e5 3d
       0.06473964 -0.1020997 0.13950534 0.112192824
0002f0 58 76 73 bc bf 06 9b 3d 6e 5a 24 be b2 b7 3c bd
       -0.014859758 0.07569646 -0.16050121 -0.046073623
000300 78 c3 f1 bc a6 e6 ce bd 8b ed 6a 3d 39 df 4e 3c
       -0.029512152 -0.101025864 0.057355445 0.012626463
000310 b8 60 c1 3d 5b 0c d8 bd 7d 15 fb bd 82 49 9c 3d
       0.09442276 -0.105492316 -0.12259958 0.07631208
000320 c0 3c 31 bc 1c 16 6e bd 97 8c 03 be bd 25 a8 bd
       -0.010817707 -0.058126554 -0.128466 -0.08210323
000330 bb 33 d5 bc a5 f5 f1 3d e1 d8 27 3e 8e 2a d1 bc
       -0.026025644 0.11814431 0.16391326 -0.025532987
000340 b4 fd 03 3e 04 b8 01 be 21 51 e8 bc af a9 8c bd
       0.12889749 -0.12667853 -0.028358998 -0.06868302
000350 95 79 28 bd a1 b5 d3 3b 6e 3d da 3d 2c 01 01 be
       -0.041131575 0.006460861 0.10656248 -0.12598103
000360 89 a0 d8 bd f3 7b e9 3d 3d 70 c5 bc 8e f6 95 bd
       -0.10577495 0.114005946 -0.024101371 -0.07322417
000370 a2 3a 09 be 43 98 42 3d fa 2d a9 3d 94 bc 90 bd
       -0.13401273 0.04750849 0.082607225 -0.070672184
000380 f4 13 4e bb 21 60 ce 3d e3 f1 81 bc 53 d3 4c 3d
       -0.0031444998 0.10076929 -0.01586241 0.050006222
000390 9c 52 02 3e a0 63 90 bd 33 eb 8a 3d 95 19 8c bd
       0.12726825 -0.07050252 0.06783142 -0.06840817
0003a0 1e db 27 3d 54 1c ad 3d 4e d2 de 3d 3c 27 a5 3d
       0.04098045 0.08452669 0.10879956 0.08064124
0003b0 f1 df 88 3d 03 b9 a0 bd f8 f1 b3 bd 8f 3e 95 3d
       0.066833384 -0.07847788 -0.08786386 0.07287323
0003c0 3b f6 92 3c 19 03 96 3d 2c 79 d4 3c 93 23 d8 bc
       0.017939677 0.073248096 0.025936686 -0.02638415
0003d0 5d e7 9f 3c 92 fb 0d 3e 5d 86 23 3d 89 dc ac 3d
       0.019519502 0.13865498 0.03992306 0.08440501
0003e0 7d 35 12 3d b6 bb ac bd 35 3d fe 3d 55 a8 d9 bd
       0.03569554 -0.084342405 0.12414018 -0.1062781
0003f0 ed 02 74 bd 34 1e de bd f2 4b 45 3d 80 ae d8 3d
       -0.059573103 -0.108456045 0.04816813 0.10580158

att.in_proj_bias f4 [192]
000000 0d 69 84 3c 5f 1f eb bb 70 32 4b bc 1d 72 d6 bc
       0.016163373 -0.0071753706 -0.012402162 -0.02617746
000010 c9 91 cd 3b 6c 51 5f bc 1e f3 90 bc fb da 3d 3c
       0.0062734825 -0.013630252 -0.017694052 0.011587854
000020 4d 2d 1e 3d 3a 39 3a bd 68 45 29 3d f9 0d 1c bd
       0.03861742 -0.04546473 0.041325957 -0.038099263
000030 04 7e 63 bc 0f 19 1d bd d1 89 dd bb 35 b3 25 bd
       -0.013885025 -0.038353976 -0.0067608138 -0.04045411
000040 a7 c2 cb b9 d8 dd 46 3d ee bb 5a bd 02 ce d9 3b
       -0.00038864205 0.04855141 -0.05340188 0.0066468725
000050 13 0b 98 3c ec f6 81 bd 72 43 61 bd 2f 69 44 3d
       0.018559968 -0.06345925 -0.05499596 0.047951873
000060 fd eb f8 3c 9a d5 49 3d 33 4c 3e 3d ff 45 3f 3d
       0.030385965 0.049275972 0.046459388 0.046697613
000070 f4 4e 46 bd 59 80 78 3b 31 64 74 3c d7 71 39 3c
       -0.04841514 0.0037918298 0.014916466 0.011318645
000080 5c 2e ad bc 77 ca 65 3c 35 f2 28 bd 5b 92 01 3d
       -0.02114027 0.014025322 -0.04124661 0.031633716
000090 70 94 01 3d 0c 25 18 3d 97 30 25 bd 9c ba 8e bc
       0.0316357 0.037144706 -0.040329542 -0.017422967
0000a0 ce b2 de ba 80 6b 58 bc 07 8d c2 bc ac 51 81 3a
       -0.0016990544 -0.013209224 -0.023748888 0.0009866259
0000b0 0c 0d b4 bb 35 8d 78 bc f4 ce 70 bc 00 c1 a6 3b
       -0.0054947194 -0.015170385 -0.014697779 0.0050889254
0000c0 2b 57 5e 3c 24 cf bf ba 6d 8a dc bb 91 b7 f4 bb
       0.013570587 -0.0014633876 -0.006730369 -0.007468172
0000d0 3c f2 50 bc f2 1e de bb a3 03 55 3c d5 3b 2b 3b
       -0.012753066 -0.0067785913 0.013001355 0.0026128192
0000e0 e3 ae 89 3c 97 d7 1b bd b7 b3 24 bd 49 b3 f5 bc
       0.016807025 -0.0380474 -0.040210452 -0.029992716
0000f0 df 05 27 bd d7 5b 2b 3d 2b 5b ca ba fd 45 08 bd
       -0.040777083 0.041835632 -0.0015438547 -0.03326987
000100 4a d7 b9 bc 60 39 9a 3b ce 80 ad ba e5 2a 55 3c
       -0.022685666 0.0047065467 -0.0013237239 0.013010715
000110 f8 7c e4 bb 2f e2 b9 3c e1 fa a6 3c 4d d0 b1 bc
       -0.0069729052 0.02269086 0.0203833 -0.02170577
000120 35 27 70 3b 90 cf 1b bc cb 61 f3 3b 96 b3 d5 3a
       0.0036644463 -0.009509936 0.0074274293 0.0016304131
000130 b2 cc 85 b8 65 65 8b bb e0 68 80 bb 80 9e 80 3b
       -6.380062e-05 -0.0042540305 -0.003918752 0.0039251447
000140 37 52 95 3b bb 4d 01 bc 43 d2 e8 b9 fe be e3 bb
       0.00455692 -0.007892068 -0.00044407145 -0.0069502583
000150 b1 9a 04 bc 42 59 24 3b 23 39 c7 bb a0 72 ac b9
       -0.008093522 0.0025077616 -0.0060798093 -0.000328918
000160 1d 86 ed bb 89 e0 a8 b9 c1 69 48 3c 94 98 9d bb
       -0.0072486536 -0.0003221075 0.012232245 -0.0048094485
000170 47 36 16 bc d3 6d 32 bc ca 8c 30 3c 57 ae 21 bc
       -0.009168214 -0.010890442 0.010775754 -0.009868226
000180 f4 69 e0 b9 22 77 2c 3c fb 46 d4 ba ce ed ac bb
       -0.0004280355 0.01052645 -0.001619547 -0.005277372
000190 6c a7 40 3c cc c2 d4 3a 4c 9a ec 3b 33 82 81 bb
       0.0117586665 0.001623237 0.007220542 -0.0039522885
0001a0 d8 1e 58 bc 6b 99 e2 bc e8 3b dc bc 26 37 4b 3c
       -0.0131909475 -0.027661046 -0.026884034 0.012403285
0001b0 a5 21 84 3c b1 a7 be bc 34 b6 59 bb 53 41 fd 3c
       0.016129324 -0.02327332 -0.0033220174 0.030914938
0001c0 07 36 91 bc 9d e9 09 3d 17 d0 8f 3c 7d e2 9c bb
       -0.017725958 0.033670057 0.01755528 -0.0047877417
0001d0 18 bd 53 3c dd de a1 bc 1e fd d0 3c 3a 49 90 bb
       0.012923501 -0.01975959 0.02551132 -0.0044032605
0001e0 1d 4a 13 3c d0 c6 c3 bb f8 16 55 39 8f f6 fd ba
       0.008989838 -0.005974628 0.0002032182 -0.0019375848
0001f0 47 61 14 3b 46 ae 43 3b ac d2 3a 3a e6 b9 15 3b
       0.002264099 0.0029858514 0.00071267295 0.00228464
000200 14 1b 49 3d 29 ca 66 bb e0 b5 0a 3d 51 83 31 bd
       0.04909809 -0.0035215712 0.033864856 -0.043338124
000210 c7 b5 a3 bc 1b d9 0f 3a ba ab c2 bc 8a 0b 04 3d
       -0.01998414 0.00054873683 -0.023763526 0.032237567
000220 61 62 5f 3c 24 86 4e 3c 8c 70 0e bd ac cb 19 3d
       0.013634295 0.012605224 -0.0347753 0.037547752
000230 37 99 80 3c 95 73 88 bd 5c f8 28 bd f9 b8 ed 3c
       0.015698059 -0.066626705 -0.04125248 0.029018866
000240 41 70 05 3d 70 03 51 bd ca 7e 47 bd 9d 67 06 bd
       0.032577757 -0.05102867 -0.0487049 -0.032813657
000250 cb 58 e6 bc e6 65 89 3c 0b 80 39 bd 19 12 18 bd
       -0.028118512 0.016772222 -0.045288127 -0.037126634
000260 80 fe cd bc 2c 1f 3c bb b7 4d df 3c 7e 13 65 bc
       -0.02514577 -0.0028705103 0.027258737 -0.013981698
000270 a1 d5 91 3b 31 92 ca 3c d6 82 a1 3b 60 ea 67 bc
       0.0044505154 0.024727913 0.004928927 -0.014155
000280 63 22 07 3d 21 b0 46 39 5c e7 9a 3c f3 2c d0 3c
       0.032991778 0.00018948365 0.018909149 0.025412058
000290 c3 7e d3 3c 6a b4 41 b9 d2 05 a5 3c 5f 41 02 bd
       0.02581728 -0.00018473124 0.020144377 -0.031800624
0002a0 13 4e c3 3c a6 39 2f bd 9a 11 1c bb 2e ac c2 3c
       0.02384094 -0.042779587 -0.0023814202 0.023763742
0002b0 a1 af a4 ba fe 34 ee bc 4a 5d d6 3c 2d 16 e6 3c
       -0.0012564549 -0.029078003 0.02616753 0.028086746
0002c0 0c d2 6e 3d c2 c8 f7 bc 60 d9 e4 3b e7 87 04 3d
       0.058305785 -0.030247096 0.006983921 0.03235617
0002d0 38 9b 18 3d 92 97 a4 bd 6c 66 15 bd 06 ed d8 bc
       0.037257403 -0.08036722 -0.03647463 -0.02648021
0002e0 d4 6f 17 bc 39 5d 98 bc 56 c0 80 bc 1a d5 0d 3d
       -0.0092429705 -0.01859914 -0.015716713 0.034627058
0002f0 6b e8 7f 3c 15 c5 16 3d c9 90 db 3c e7 24 e3 bb
       0.015619378 0.036809046 0.026802437 -0.0069318893

att.out_proj.weight f4 [64, 64]
000000 36 4c 9d 3d 5d a0 c6 bd bb 5c b9 3b 8c d6 dd bd
       0.07680552 -0.096985556 0.0056568063 -0.10831937
000010 3d 35 c8 bd f6 3d b1 bd 30 97 9c 3d 85 97 e8 3c
       -0.097757794 -0.08654396 0.07646024 0.028392563
000020 cf a6 9b bd 56 02 80 bd b6 68 04 be f6 df 53 bd
       -0.076001756 -0.062504455 -0.12930569 -0.051727258
000030 b6 dd 35 bd de b9 88 bc c0 cc da bd cc 23 4b bc
       -0.044400893 -0.01669019 -0.10683584 -0.012398671
000040 6b f9 53 3c ef 6a e4 bd de cf a3 3b 75 0d 8e bd
       0.012937884 -0.111532085 0.004999145 -0.069361605
000050 f4 07 0a 3e 81 a0 ec 3c 31 70 cb bd 03 78 66 bd
       0.13479596 0.028885128 -0.09933508 -0.056266796
000060 20 e9 d0 bd 3f f5 e8 bd 44 01 16 3e d0 5f 6a 3d
       -0.10200715 -0.11374902 0.1464892 0.05722028
000070 98 e3 8d bd f9 d0 5a bc 8c 24 ca 3d 39 f0 9d 3d
       -0.06928176 -0.013355487 0.09870252 0.077118345
000080 27 0c 70 bd c5 dd 86 3d fa 03 1c 3c 27 52 ed bc
       -0.05860534 0.06585268 0.009522432 -0.028969837
000090 84 a3 a6 3d be a1 80 bd c0 00 0d 3c 2d 59 90 3d
       0.08136657 -0.0628085 0.008606136 0.07048259
0000a0 32 d7 bf 3c 74 05 b8 bc 8f 2f c5 3b 77 9b 86 bd
       0.023418043 -0.022463538 0.0060176323 -0.06572621
0000b0 88 50 de 3c 7e ec bb bd 38 7f a0 b9 26 39 cd bd
       0.02713801 -0.09175967 -0.00030612363 -0.10020666
0000c0 f8 02 e8 3c 27 31 25 bd af 5f 06 be 74 59 9c 3c
       0.028321728 -0.04033008 -0.13122438 0.019085623
0000d0 6e 8a d8 3d 53 ed 0b be a6 59 eb bd c1 e2 66 bc
       0.10573278 -0.13664751 -0.114917085 -0.014092148
0000e0 dc fd 1d 3c 05 b2 a9 3b 03 29 a9 3b 05 53 34 3d
       0.009643044 0.0051786923 0.0051623597 0.044024486
0000f0 08 ac c6 3d 0e c3 89 bc b7 5c aa 3d 54 20 85 3d
       0.09700781 -0.016816642 0.08318465 0.06500307
000100 7d 7c 79 3d c0 c7 43 3d 2f 79 9b 3d ee e5 04 bd
       0.060909737 0.04779792 0.07591473 -0.03244584
000110 cf b1 ed bc db cf a3 bc f1 7c 06 3e 97 06 01 be
       -0.02901545 -0.019996574 0.13133599 -0.1260017
000120 e7 86 01 3e 87 20 61 3d 65 3e 68 bd c6 44 7e bd
       0.12649117 0.05496266 -0.05670013 -0.062077306
000130 84 74 ac 3d 7e 44 06 bc 63 4b 2d 3e 24 67 0e 3d
       0.08420661 -0.008195041 0.16923289 0.03476633
000140 11 37 78 bd b4 b2 fe 3c a2 1f b5 bd 10 4c 66 bd
       -0.06059939 0.031091072 -0.08843924 -0.056224883
000150 f6 32 b1 bd 44 d7 9f bc 00 b3 c0 3d fe 4f a7 bd
       -0.08652298 -0.019511826 0.094091415 -0.08169554
000160 fa b7 ac bd c8 9b ef 3d 42 e1 bc 3d 32 bd 78 3d
       -0.08433528 0.11699635 0.09222652 0.060727306
000170 90 bd d1 bb b9 99 09 3d 61 c4 9f bd 2a 94 b6 bc
       -0.0064007714 0.033593867 -0.07801128 -0.022287447
000180 75 60 c8 3d 4b 83 61 bd 66 35 02 3d 1b 9e a2 bd
       0.09784023 -0.05505685 0.031789206 -0.079403125
000190 16 30 4b 3d 4b 6d ab bd 7c 4c 07 bd 78 e4 c8 bd
       0.049606405 -0.08370455 -0.033031926 -0.09809202
0001a0 e6 54 91 bb 75 54 84 ba 2f f0 9b 3d 50 5f 0b bc
       -0.0044351695 -0.0010095971 0.07614171 -0.008506611
0001b0 ee dd be bd bf 66 93 bd 61 ff da bd 12 89 ab bd
       -0.093196735 -0.07197332 -0.10693241 -0.083757535
0001c0 39 05 9a bd 93 c8 93 3d f0 ac f5 bc 44 8b 55 bc
       -0.075205274 0.07215991 -0.02998969 -0.013033692
0001d0 22 ba d6 3d df 15 df bd 3c 8f c2 3d e1 47 85 3d
       0.10484721 -0.108928435 0.09499976 0.065078504
0001e0 58 8a fd 3d 03 3a 84 3d 74 79 b8 bb 39 c5 8c bd
       0.123799026 0.06456377 -0.0056297127 -0.06873555
0001f0 f1 01 9b bc ac 59 8a 3d 78 e7 c3 3d 50 e9 3d 3d
       -0.018921824 0.06755385 0.095656335 0.046365082
000200 24 a4 f4 bb 60 a8 74 3d 87 9f bc 3d 15 7b da bd
       -0.007465856 0.059730887 0.09210115 -0.10668007
000210 ae 75 e6 bc 26 b4 a4 3d f5 b2 da bd 14 d1 9d 3c
       -0.028132286 0.08042173 -0.106786646 0.019264735
000220 35 94 ef 3d d2 a8 18 3c 8e a2 ee bd 2d c2 67 bb
       0.1169819 0.009317594 -0.116520986 -0.003536354
000230 52 bc b6 3c dd 15 07 3d c4 e9 65 3d 07 b6 f2 bd
       0.022306595 0.032979835 0.05613114 -0.11851125
000240 1b 4f c7 bd 82 42 08 be 9b 72 49 bd 92 2e ba 3d
       -0.09731885 -0.1330662 -0.049181562 0.09090914
000250 5f ef 99 3d 6b 73 c5 bd 33 3d 84 bd a7 ca 07 bd
       0.075163595 -0.09641155 -0.06456985 -0.03315225
000260 27 cb ac bd 70 08 81 bc ec 68 ba bd 05 9c 05 be
       -0.08437186 -0.015751094 -0.091020435 -0.13047798
000270 f7 d9 98 bd a9 00 76 bc 7d 1f 2d bd 9a 69 e6 bd
       -0.074634485 -0.015014806 -0.042266358 -0.11250611
000280 51 74 13 bd 41 f0 91 3d 7e 61 3b bd 7e 29 ad 3c
       -0.0359996 0.07125903 -0.045747273 0.02113795
000290 c6 bb a4 3d 5d 16 11 bd 5b 8d 4d bc 55 ad 85 3d
       0.080436274 -0.035421718 -0.012545909 0.06527201
0002a0 93 b7 8b bd 37 e0 e9 3c ed 20 c6 3d ca e5 f5 3d
       -0.068221234 0.028549297 0.09674249 0.120067194
0002b0 08 8b 1f 3d d7 2f a4 bd 5a dc 00 bd c2 f3 6c bd
       0.03895095 -0.08016937 -0.031460144 -0.057849653
0002c0 4d 98 ef 3d 84 a1 b6 bc 15 67 ce 3d e5 7f e8 3d
       0.11698971 -0.022293814 0.10078255 0.11352519
0002d0 32 f0 c2 bc 24 f4 b5 bd af 20 55 bd af 98 1e bd
       -0.023796175 -0.08884457 -0.052033123 -0.03871983
0002e0 dc 52 5f 3d f8 3e 07 be ef b9 91 3c 9e b7 e5 3d
       0.05452238 -0.13207614 0.017788855 0.11216663
0002f0 28 fd b9 bd 25 7c be 3d 61 28 09 3d 8a cc 44 bd
       -0.09081489 0.093010224 0.033485774 -0.048046626
000300 88 6f e2 bc dd fc 13 3d ab 70 af 3d 63 ae be 3d
       -0.027641073 0.03612982 0.085664116 0.093106054
000310 e2 fe 83 3d 34 71 bb 3d f0 c6 0d be fb 4c 53 3d
       0.064450994 0.09152451 -0.1384542 0.051587086
000320 12 7f cd bc b9 b4 ab bd db 01 a4 3d 61 68 02 3d
       -0.025085006 -0.083840795 0.080081664 0.031837825
000330 54 af db bd 76 6e a6 3c 2b e5 d1 3b ef 5d 91 3d
       -0.107268006 0.020316344 0.006405493 0.070979945
000340 cc c0 19 bd d7 10 6e bd ca 99 84 bd 44 81 ff bc
       -0.03753738 -0.05812153 -0.064746454 -0.031189568
000350 25 f6 d6 bd 0e 23 af 3d 66 e8 e4 3d 87 f3 b5 bd
       -0.10496167 0.08551608 0.11177139 -0.0888434
000360 b7 62 15 bd 13 2d be bd 79 41 9a 3d 6e b6 22 3d
       -0.036471095 -0.09285941 0.07532019 0.03972476
000370 d2 dd f9 bc da af cd 3c d0 3c df bd d7 9d a1 3c
       -0.03050128 0.025108267 -0.10900271 0.019728584
000380 d4 9c d6 3d cf 83 4c bc 60 3b e9 3c ae 27 b9 bc
       0.10479131 -0.0124825975 0.028470695 -0.022601929
000390 67 95 02 3e 2d 14 83 3d b6 a1 27 bd 2b 57 e8 bd
       0.12752305 0.064003326 -0.040925704 -0.11344751
0003a0 95 9a 90 bd 3c e9 0c be f3 03 e0 bd b6 15 c4 3d
       -0.07060734 -0.13760847 -0.10938253 0.095744535
0003b0 9e ef cb 3d bb 45 97 bd 59 65 07 3e 52 ba ae bd
       0.09957813 -0.07386347 0.13222255 -0.085316315
0003c0 0d 86 e6 3d 3c e2 e5 3c 5b 2b d3 bc 24 e6 4a bc
       0.11256037 0.028061979 -0.02577751 -0.012383971
0003d0 3d d2 a8 3c 03 79 29 3d 3d 31 b6 3d 66 42 c1 3d
       0.020608062 0.04137517 0.0889611 0.094364926
0003e0 ef a0 f2 3c e7 84 cf 3d ea f3 42 3d 9e 5d 94 bd
       0.029617755 0.10132771 0.047595896 -0.072444186
0003f0 4c 07 ed bd 3b 33 23 3c af 05 31 bd 17 8c 07 3d
       -0.115736574 0.009960945 -0.04321831 0.033092584

att.out_proj.bias f4 [64]
000000 98 d3 1e 3d 72 1e eb bc dd 72 39 3d d5 59 87 ba
       0.03877601 -0.02870104 0.045275558 -0.0010326455
000010 46 7b 11 3c 5e ae 35 bd 98 ca 57 bc dd 1e b3 3c
       0.008879488 -0.044355743 -0.013170861 0.021865303
000020 35 a8 01 bc 7b 80 f0 3b 60 87 81 b8 a9 e3 2c bc
       -0.007913639 0.007339535 -6.176415e-05 -0.010552325
000030 d0 61 c4 3c 34 21 dc 3b 67 88 7c 3b 2f 6d 03 bd
       0.023972422 0.0067178253 0.003853345 -0.032086547
000040 45 fc 4d 3c 71 aa 44 bb c0 b7 bb 3c cb 02 9e 3c
       0.012572353 -0.0030008818 0.022914767 0.019288441
000050 c9 6e 1a bd 48 32 1e 3d 16 3c 8f 3d b7 e0 3d bc
       -0.03770331 0.03862217 0.06993882 -0.011589221
000060 03 ac 04 bd a5 06 d6 3c 28 d6 4c bd 53 01 06 3d
       -0.032390606 0.026126215 -0.050008923 0.032716107
000070 ac d5 51 3c 3e cd 74 bc 4b 02 b8 3c fc 12 6f 3c
       0.012807291 -0.014941512 0.02246203 0.014591929
000080 c0 ae 3d 3c 39 6b dd bb 0e b9 38 bc fb 6d 03 3c
       0.011577308 -0.0067571667 -0.011274589 0.008021827
000090 c3 d3 32 3c 29 28 82 bc 8f be 73 bc ad 2f 95 3b
       0.010914746 -0.01588829 -0.014876976 0.0045528025
0000a0 1d d5 55 3d 66 7d 45 bc 5a da c5 3c 4b a5 d1 3c
       0.052205194 -0.012053823 0.02415197 0.025591513
0000b0 69 3c 23 bd ac e9 23 3d 65 f0 bf bb 19 88 72 bc
       -0.039852533 0.04001777 -0.0058575147 -0.014802956
0000c0 e6 4d 56 bc a5 82 02 3d e4 13 13 b9 16 00 70 3c
       -0.013080096 0.031862874 -0.00014026422 0.014648458
0000d0 fa 95 33 bd 2d 66 6d 3c de 52 b1 3c 39 e6 ea 3c
       -0.0438442 0.014489693 0.02164596 0.028674232
0000e0 83 0f eb bc bd 64 18 3d 82 4b 92 bc 2a 2a 9a 3c
       -0.02869392 0.037205447 -0.01785827 0.018818934
0000f0 e2 73 f5 3c 8a 4d 3a 3d 25 72 90 3c 89 54 5a 3b
       0.029962484 0.045484103 0.017632553 0.0033314547

pose_embed.weight f4 [32, 48]
000000 26 64 15 be f1 94 0a 3e 36 3a 24 bd 31 4d ca bd
       -0.14588985 0.13533379 -0.040094577 -0.09878004
000010 1e 0b 0a bd 01 ea b7 3d 9d 03 96 bd 59 2f e0 bd
       -0.03370201 0.089801796 -0.07324908 -0.10946531
000020 a6 af 51 3d 80 ad 2d 3d 95 de fb bc d8 1e 3c 3d
       0.051192902 0.04240179 -0.030745784 0.045927852
000030 15 2d 78 bd d5 bb 1b 3d 6b 14 27 3d a5 d8 cc bd
       -0.06058987 0.038020927 0.040790956 -0.10002259
000040 ec 3c 09 be 5a 0b dc bd 4f a4 33 bd 5e 1c 24 3d
       -0.13402146 -0.10744353 -0.04385787 0.040066116
000050 7a 08 5e bd 04 62 8f 3d dd ec 83 bd 51 33 94 bd
       -0.054207303 0.07001117 -0.064416625 -0.0723635
000060 b0 db e3 3d cb 0d e8 3d 78 e9 8b bc 2e 7e 0c 3e
       0.111258864 0.11330756 -0.0170791 0.13720009
000070 c9 03 01 3e 0a 99 9b 3d f0 2e f8 3c d9 67 37 bd
       0.125991 0.07597549 0.030295819 -0.04477677
000080 25 42 d1 3c a6 6b 1a 3d 18 1d 70 bd 3c 25 fb 3d
       0.025544235 0.037700318 -0.058621496 0.12262961
000090 28 36 f2 3c f8 7e 6e 3d 23 f8 81 3c 28 44 ed 3b
       0.02956684 0.058226556 0.015865391 0.007240791
0000a0 b7 0b 8a 3c 72 67 09 bd 9e d4 c1 3d 22 ec a4 3d
       0.01685129 -0.03354592 0.09464382 0.08052851
0000b0 7e 79 7c bd e2 66 14 3d 9c d5 47 3d dd 2a 0e be
       -0.0616393 0.03623093 0.0487877 -0.13883539
0000c0 1b 7c ae 3d 5e e2 c3 bd 94 56 cf 3d a1 38 a7 3d
       0.08519765 -0.095646605 0.10123935 0.08165098
0000d0 4a c6 17 3e 0c a0 ca bd ae 71 2b be 31 ba 4b bd
       0.14821735 -0.09893808 -0.16742584 -0.049738113
0000e0 c4 f7 4d 3d 98 86 2e bd 0a a1 8b 3d bb 76 f6 3c
       0.050285116 -0.042608827 0.06817825 0.030085912
0000f0 0e 39 49 bd 31 26 b1 bd 4a 88 de bc cb 7f 49 bd
       -0.049126677 -0.086498626 -0.027164597 -0.04919414
000100 6a 93 bd bd ff ec 25 be 3a 73 b4 bc 2e 85 d0 3d
       -0.092566326 -0.16203688 -0.0220276 0.10181652
000110 ef b8 98 bd b1 bb 27 3c 04 47 d8 bd d2 bf c6 3d
       -0.07457148 0.01023762 -0.1056042 0.097045556
000120 a6 6b 7e bc ee da 0c 3e 1d 79 e3 3c 3e b6 96 3d
       -0.015528595 0.1375539 0.027767712 0.07358979
000130 79 df 7e bb cf e9 ef 3d 6d a2 90 bd 94 cf ee 3d
       -0.0038890524 0.11714517 -0.0706223 0.11660686
000140 78 ed 35 3a 05 ce 7a bd 02 1e 95 3d 4e 79 5f 3d
       0.00069399877 -0.06123163 0.07281114 0.054559045
000150 b2 32 b9 3d 0c 4c b8 bd 30 48 3a bc a6 97 e5 bc
       0.090428725 -0.0899888 -0.01136975 -0.028026413
000160 a3 14 04 be 1e 4a 77 bd ee 60 a6 3d 90 04 c8 3d
       -0.12898497 -0.060373418 0.081239566 0.09766495
000170 0c a1 ff bd 8c e1 d8 bd 1a 81 c5 3d 34 a1 98 3d
       -0.12481889 -0.10589895 0.09643765 0.07452622
000180 05 9a 6e 3d 5d ed c0 bd 8a 92 23 3d b9 5d 85 3c
       0.058252353 -0.094202735 0.039934672 0.016280042
000190 b0 31 47 bd b2 a0 ec bd cd 35 4c 3d db 05 2d 3d
       -0.04863137 -0.11554088 0.049855996 0.042241912
0001a0 28 1d f0 bd 58 ad 27 3e d8 74 47 bb ec ac 09 bd
       -0.11724311 0.16374719 -0.0030434635 -0.033612177
0001b0 21 47 4a bd b2 03 e4 bc 3c 30 61 bd 69 69 82 bd
       -0.04938424 -0.027833793 -0.05497764 -0.06367762
0001c0 7a be 93 3c 94 8c af bb 6c b9 e4 3d 9a 0b 4b bd
       0.018035162 -0.0053573344 0.11168179 -0.04957161
0001d0 63 9b 13 3e 73 1b 58 bd c8 22 cf bd a2 3e d5 bc
       0.14414744 -0.052760553 -0.10114056 -0.026030842
0001e0 ef 53 9c 3c 45 51 06 be 1e 87 ae bd 40 3e f2 3d
       0.019082991 -0.1311694 -0.08521865 0.118282795
0001f0 64 bc c3 bd e5 c3 6f bd 07 e7 1d 3c 7b 07 b8 3d
       -0.09557417 -0.05853643 0.009637601 0.08985802
000200 f5 25 92 bd 42 be c2 bd d9 e0 d3 3d d6 75 bd bc
       -0.07136146 -0.09508945 0.10345621 -0.023127478
000210 24 5e f1 bd c6 07 bd bd 1d 77 b3 3c 8d a9 64 bd
       -0.11785534 -0.09229998 0.021907384 -0.05582576
000220 76 2b 5e bd cb fd cf 3d 21 55 a6 bd 9c 62 38 3d
       -0.054240666 0.10155829 -0.08121706 0.045015916
000230 66 3d 01 bd f3 09 d4 3c c2 99 f5 bd a4 02 f6 bd
       -0.031552695 0.02588365 -0.119922176 -0.120122224
000240 48 fb 96 3d d1 f1 fe 3d 01 d5 3e be 83 dd 8b 3d
       0.07372147 0.124484666 -0.18635942 0.068293594
000250 a5 2c 2b be ab b2 69 bd b2 f2 34 3e ec 81 04 3e
       -0.1671625 -0.057055157 0.17670706 0.12940186
000260 1c d9 04 bd fb a6 2e 3d f9 ad 9c bc db f5 3a bd
       -0.032433614 0.042639714 -0.019125925 -0.045644622
000270 93 73 af 3b 75 04 d4 bd b3 a3 9e 3d 68 89 fe 3c
       0.0053543537 -0.103524126 0.07746067 0.03107138
000280 e2 d4 3a bd f3 2b 89 bd ee c9 65 bd 98 f3 e1 3c
       -0.045613177 -0.06697836 -0.05610078 0.027581975
000290 68 6d 0e 3e 5c 02 12 3e e5 74 47 bc ca d2 be bd
       0.13908923 0.14258713 -0.012173866 -0.093175486
0002a0 57 ce e8 3d a0 bf 68 bd 06 cc 0b 3d fb 8e e4 3d
       0.11367481 -0.056823373 0.03413012 0.11160084
0002b0 a6 66 c8 bd e9 d7 dd bd 8e bf 14 bd df c8 0f 3e
       -0.09785204 -0.10832197 -0.036315493 0.1404147
0002c0 1c 6c 66 3b 81 12 d3 bd f6 98 06 3e fc 03 87 3d
       0.0035159653 -0.10306264 0.13144287 0.06592557
0002d0 f0 4d 58 bd 49 97 53 bd fa 52 1e 3d ec 69 4f 3c
       -0.052808702 -0.05165795 0.03865335 0.012659531
0002e0 43 04 85 bd 06 cb d7 bd 20 7d 80 bd 56 74 ea bb
       -0.064949535 -0.105367705 -0.06273866 -0.0071549816
0002f0 e9 7b c8 3d f1 50 2b bd 51 b9 d2 3d 35 b8 eb bd
       0.09789259 -0.04182524 0.102892525 -0.11509744
000300 22 d6 34 3c 48 76 31 3b 02 7f 4f 3d 06 b1 0a be
       0.011037381 0.0027078558 0.050658233 -0.13544092
000310 58 ed 4c bd be bb be bd 9b 15 3d be 78 66 9b 3c
       -0.050031036 -0.09313153 -0.18465273 0.01896976
000320 a0 bf da 3d cb 62 c7 3d ce 34 d3 3d f0 d3 d3 3d
       0.10681081 0.0973564 0.10312806 0.10343158
000330 f2 56 1d bd a5 ba 9f 3d d1 58 44 bd 90 51 24 3e
       -0.038412996 0.077992715 -0.047936264 0.16046739
000340 8b 6d 91 bd 4d c8 ca bc 94 ec d0 bd 1d 37 4c bc
       -0.07100972 -0.024753714 -0.10201374 -0.012464312
000350 f5 95 30 bd fb f6 88 bd df 55 94 3d f5 3e 10 bd
       -0.04311176 -0.06687733 0.07242941 -0.03521629
000360 cb f2 eb bd 17 62 da bd 90 f0 c5 3c b4 3d be 3d
       -0.115209185 -0.106632404 0.02416256 0.09289113
000370 f3 0a 6c 3c 85 ce c7 3d 27 d9 f6 bd 7c b2 65 bd
       0.014406907 0.09756187 -0.12053137 -0.05607842
000380 bb d0 82 bd e5 20 bf bc fd 87 c5 bd 55 f0 2b bd
       -0.063874684 -0.023331115 -0.09645078 -0.041977245
000390 dd ab 0c 3e 57 86 ce bd ed 4d cb bd e4 66 87 3d
       0.13737436 -0.10084217 -0.099269725 0.06611422
0003a0 66 97 61 bd 27 e0 14 3d 66 4c 87 3d bd f2 83 bd
       -0.055076025 0.03634658 0.06606369 -0.06442783
0003b0 dc 7d 10 3e bb 33 3a bc f0 27 fa bd 3e da 0b 3e
       0.14110512 -0.011364873 -0.12214649 0.13657472
0003c0 33 9a a5 3d b4 66 0d 3e 5f 65 0e 3e 54 59 08 be
       0.08086052 0.1380871 0.13905858 -0.13315326
0003d0 ca 80 52 3c e7 1a de bd fd 79 0f be 7b 2f 18 3d
       0.0128480885 -0.10844975 -0.14011379 0.037154656
0003e0 2c d6 b5 3d 42 02 6b bd 49 d1 de 3b b7 28 66 bd
       0.08878741 -0.0573752 0.006799851 -0.056191172
0003f0 53 04 a9 3d 7b d2 78 bd 9c d2 82 3d 62 df a2 3b
       0.08252778 -0.060747605 0.06387827 0.004970477

pose_embed.bias f4 [32]
000000 aa 6a a8 3d 86 14 0a be ee 7d 96 bd 94 a8 ba bd
       0.082234696 -0.13484392 -0.07348238 -0.09114185
000010 c8 9d 26 be ab 16 e3 3d cc 01 8f bd 55 c5 85 bd
       -0.16271126 0.11088308 -0.069827646 -0.06531779
000020 ca d3 73 bd d5 35 2e 3e 86 51 49 bd 3c 07 bc bd
       -0.05952815 0.17012723 -0.049150012 -0.09181067
000030 ac 56 f0 3d 00 2e 46 3c b2 d8 85 bd 71 28 89 3c
       0.11735281 0.012095928 -0.06535472 0.016742917
000040 26 30 a4 bd f4 64 d6 bc c2 a5 5e bd 7d 41 28 be
       -0.08016996 -0.026171185 -0.054357298 -0.16431232
000050 62 81 13 be f7 53 fd 3d 6f e7 64 3c 02 63 c7 bc
       -0.14404824 0.12369531 0.013971194 -0.024339203
000060 de 22 7d 3b db 9c 15 be 43 cd f5 bd c2 3a 27 be
       0.0038625519 -0.14610617 -0.12002041 -0.16331008
000070 bd e6 95 3d f8 7d 19 be 76 26 d7 3d 26 a9 54 bc
       0.073194005 -0.1498946 0.10505383 -0.012979781
