gp_model.pth (torch, 978944 bytes, 192 tensors)

q_hist_emb.0.weight f4 [32, 6]
000000 41 4f 48 bb 1c 42 60 3e 2b 07 ae be be 63 ab be
       -0.0030564817 0.21900219 -0.33989844 -0.33474535
000010 7c 8a fb bd 8a 66 d7 3d 74 86 04 bc 74 bb a5 3e
       -0.12282273 0.10517605 -0.008088697 0.32369578
000020 12 46 61 bd bb e8 ca 3d 25 97 0d be 31 06 9d bd
       -0.054998465 0.09907671 -0.13827188 -0.076671965
000030 a0 b0 c7 be aa 6e 8a be f6 db 14 be 57 8b 42 bb
       -0.39001942 -0.27037555 -0.14537033 -0.0029685104
000040 4d 24 63 3e b2 c9 71 3e 93 b4 8d be 2a 0b 36 be
       0.22181816 0.23612097 -0.2767683 -0.17777696
000050 4e a4 06 3e 55 9a be 3e 9a ab e3 bd 81 1c ad 3e
       0.13148615 0.3722712 -0.11116715 0.3381081
000060 a3 c3 86 bd d5 f0 30 3d 2e a5 cf 3e 39 82 c2 be
       -0.065802835 0.043198425 0.4055571 -0.37989977
000070 88 76 80 be 6b c2 c2 bd 54 f4 22 be 9d 98 b4 3e
       -0.25090432 -0.095097385 -0.15913516 0.35272685
000080 69 3d 8f be d1 b8 53 be d0 44 67 be 3e 69 c1 be
       -0.2797654 -0.2067597 -0.22584844 -0.37775606
000090 d0 07 74 be 06 ad b3 3e 22 ae 25 3e 2d c7 42 3e
       -0.23831105 0.35092944 0.16179708 0.19021292
0000a0 17 51 ff 3c f3 4c 81 be 3d 74 8d 3d ee 29 c3 be
       0.031166596 -0.2525402 0.06906936 -0.38117927
0000b0 20 7b a3 be a6 f2 3a be 70 8a 4b 3e 95 2f 92 3e
       -0.31929874 -0.18256626 0.19877028 0.28551927
0000c0 c5 66 39 be 81 58 71 bc a0 4c 97 3e 4f 0c ce 3e
       -0.1810561 -0.014730574 0.29550648 0.40243766
0000d0 a3 1b 1a 3e c9 3e 71 3d ac 25 8c 3e 89 25 76 be
       0.15049605 0.058897767 0.2737249 -0.24037756
0000e0 83 c1 71 3d b5 2a a5 be 2f dd 8e be 11 37 18 be
       0.059022438 -0.32259145 -0.27903125 -0.14864756
0000f0 98 27 3d 3e 25 1f 28 3e b3 51 6b be 09 0f fd 3d
       0.18472135 0.1641813 -0.22980385 0.12356383
000100 c4 a8 52 3e b8 e4 83 bd ed 62 7f 3c 01 ba c1 3d
       0.20572191 -0.06440109 0.015587551 0.094593056
000110 ae e8 81 3e fd 95 b7 3e e6 b3 9c be 9d 3d c2 bd
       0.25372833 0.3585662 -0.30606002 -0.09484408
000120 dc 4b 24 3e 9d 2f ad 3e 4e 00 b5 3e 58 a7 bd 3e
       0.16044563 0.3382539 0.35351795 0.37041736
000130 ad c6 4d 3d 66 4d af be 17 d4 19 3d 18 c4 82 be
       0.0502383 -0.34238738 0.03755578 -0.25540233
000140 ba 2e ba be 5e a4 b9 3e 48 53 87 3e 52 8a b8 be
       -0.36363775 0.36258215 0.26430726 -0.3604303
000150 40 7e 9c 3d 21 d9 8c bd 6c 92 98 bd eb 0b 3a be
       0.07641268 -0.068773516 -0.07449803 -0.18168609
000160 1e 84 00 3e 64 68 86 be 8c 40 19 3e cd 68 53 3e
       0.12550399 -0.2625152 0.14966029 0.20645447
000170 de 71 91 3e c6 75 2a 3e 38 9d dc be 90 d1 7a be
       0.28407186 0.1664649 -0.43088698 -0.24494004
000180 9e bc 50 3e cc fe ae 3d 7a 88 a7 be e1 fa 64 be
       0.20384452 0.085446924 -0.3272131 -0.22361328
000190 80 03 a8 3e 06 f6 a4 3e 58 47 36 be 88 6e d2 bd
       0.3281517 0.3221895 -0.17800653 -0.102749884
0001a0 32 2f d0 be 25 87 ea 3c 47 4b a5 be 5a ce 8d be
       -0.40661007 0.028628895 -0.32283995 -0.27696496
0001b0 03 46 b8 bc 00 12 7b 3d 79 a6 26 be 9e 5c 8a 3e
       -0.022494322 0.061296463 -0.16274442 0.27023786
0001c0 1c 76 8a be 0a 6a b7 3e 58 3e 8f 3e 01 44 b0 be
       -0.27043235 0.3582309 0.27977252 -0.34426883
0001d0 26 41 b5 bd 86 7b 32 3b c6 e9 0f 3e 9b c0 3c 3b
       -0.08850317 0.002723427 0.14054021 0.0028801325
0001e0 9d 0d 24 3e 0d 54 c8 3c 21 69 44 be 06 aa 55 3e
       0.16020818 0.024454141 -0.19180728 0.2086564
0001f0 ee 4d c7 be a1 da 57 be 86 4c d1 bd cc a2 4b be
       -0.38926643 -0.21079494 -0.10219674 -0.19886321
000200 cd c3 00 be a1 33 a4 be 1e 78 8b bd 51 fb 92 3d
       -0.12574692 -0.3207064 -0.0681002 0.07176841
000210 e2 2b 88 be 85 a1 ab bc 17 29 a0 3e 16 bf 60 bd
       -0.2659598 -0.020951042 0.3128135 -0.054869734
000220 89 b5 62 3c ef 14 10 3d a5 35 a9 3d b8 e7 84 3e
       0.013837227 0.035176214 0.08262185 0.25958037
000230 8f 88 c0 3e c0 aa 85 3e 5a 4b cc 3e 58 82 fd ba
       0.37604186 0.26106834 0.3990124 -0.0019341214
000240 1d c5 bb be ac 2f 46 be be 0d 94 3e 22 8e 60 bd
       -0.36673823 -0.19354123 0.28916734 -0.05482305
000250 47 e6 d6 bd 9d ec cd be 5f 9d c3 be d0 6a b0 be
       -0.10493141 -0.40219584 -0.38206002 -0.3445649
000260 9f b4 97 bd 23 c9 6b 3e 04 e7 64 3e 2f 33 b1 be
       -0.074074976 0.23025946 0.2235375 -0.34609362
000270 87 62 82 3e 05 90 a3 be 17 9b 97 bd 5a 53 2b be
       0.25465795 -0.31945816 -0.07402628 -0.16731015
000280 3d ec 5a bd d3 d0 c9 bd 20 91 bb be 7e 7a b4 be
       -0.05344795 -0.09854283 -0.3663416 -0.35249704
000290 b2 bd 9a bd 83 44 aa bb 27 f5 3d be fb c3 ce 3d
       -0.07555713 -0.0051961555 -0.1855055 0.10095974
0002a0 0e 22 bc be ca b3 e1 bc bb c5 b2 3e 7f bc 19 be
       -0.36744732 -0.02755155 0.3491648 -0.15013312
0002b0 1c c2 a0 3e 37 c3 61 3e 9d a2 bc be 96 3f 84 3e
       0.31398094 0.22047125 -0.36842814 0.25829762
0002c0 c3 c8 1f bd 54 4c 42 be 83 59 9c 3e 50 fd bc be
       -0.03900982 -0.1897443 0.30537042 -0.36912012
0002d0 07 6f 33 3d 36 0d af bd 1d 1d a5 3e 27 86 e9 3d
       0.043807056 -0.08547442 0.32248774 0.11402541
0002e0 31 c3 52 3e ed aa 2a 3e 21 0f c9 bd b7 d5 af bd
       0.20582272 0.16666766 -0.09817339 -0.08585685
0002f0 71 12 ad be 72 80 85 3e e8 b4 a9 3e a9 13 90 3e
       -0.33803132 0.26074558 0.33145833 0.2814

q_hist_emb.0.bias f4 [32]
000000 d1 2b 68 be 54 d6 0c bd 1f 0c 48 be 08 fc 15 be
       -0.22672965 -0.034384087 -0.19535874 -0.14646924
000010 0a 75 5b be 4f ee 19 3e 42 0c 44 be 3f f0 d5 3c
       -0.21431366 0.15032314 -0.19145301 0.026115535
000020 92 6a e8 3c 06 ec 2e 3e 53 15 b1 be 11 92 64 be
       0.02837113 0.17082223 -0.34586582 -0.22321345
000030 f5 0d 3c be 27 f6 5c 3e 89 b0 07 be 46 9b 82 3e
       -0.18364699 0.21578275 -0.13250937 0.2550909
000040 8c 45 da 3d c4 82 9c 3d b6 28 92 3a b7 95 ad bd
       0.10657796 0.07642129 0.0011151049 -0.084758215
000050 ba 95 9a 3d ae 71 df bd d5 aa a1 bd 48 72 eb bb
       0.07548089 -0.109103546 -0.07893912 -0.0071852542
000060 ae 2e 7e be 8a 49 23 be 0e 5c 8d 3e bf 2c 97 be
       -0.24822494 -0.15946022 0.27609295 -0.29526326
000070 47 cb 7b bc e6 5a ae 3e 85 47 0a 3e 3b 2e 29 3d
       -0.015368289 0.34053725 0.13503845 0.041303854

q_hist_emb.1.weight f4 [8]
000000 f3 9a 86 3f 00 00 80 3f 00 00 80 3f 00 00 80 3f
       1.0516037 1.0 1.0 1.0
000010 00 00 80 3f 00 00 80 3f 00 00 80 3f 00 00 80 3f
       1.0 1.0 1.0 1.0

q_hist_emb.1.bias f4 [8]
000000 ca eb a7 3b 00 00 00 00 00 00 00 00 00 00 00 00
       0.005124544 0.0 0.0 0.0
000010 00 00 00 00 00 00 00 00 00 00 00 00 00 00 00 00
       0.0 0.0 0.0 0.0

q_hist_emb.1.running_mean f4 [8]
000000 2b 0d f4 bc 27 d4 a1 bc 5c dd 24 bc b0 75 28 ba
       -0.029791435 -0.019754482 -0.010062542 -0.0006426228
000010 64 b8 13 3c b5 18 a8 3c 67 40 07 3d 0a bc 2f 3d
       0.00901613 0.020519594 0.033020403 0.042903937

q_hist_emb.1.running_var f4 [8]
000000 b6 ab a1 3d de 76 90 3e 17 03 fc 3e e8 c6 32 3f
       0.078940794 0.28215688 0.49221107 0.69834757
000010 c8 7a 6b 3f 99 9b 96 3f e4 f6 b7 3f ce 04 d4 3f
       0.91984224 1.1766235 1.437222 1.6563966

k_hist_emb.0.weight f4 [32, 6]
000000 3b 24 b5 be 44 17 4f 3e bb ac 8a be 22 05 13 be
       -0.35379204 0.20223719 -0.27084908 -0.14357427
000010 05 d2 36 bd 61 9e f6 3a a4 53 92 3b 63 67 ac 3e
       -0.044633884 0.0018815511 0.004465537 0.33672628
000020 ec 8e 1e 3d 79 dc af 3e 41 6d 29 3e 1d 5a 50 be
       0.03871052 0.34347895 0.16545583 -0.20346875
000030 d6 7e 3b 3e f4 c1 93 be 65 a8 48 be 22 cd df 3d
       0.18310103 -0.28858912 -0.19595487 0.10927798
000040 9b a3 03 3e a2 4b 8c 3e 63 93 06 be ef 52 2b 3a
       0.1285538 0.27401453 -0.13142161 0.00065354904
000050 26 fe 71 3e de 10 ce be 09 ec 7d 3e 47 b2 a2 be
       0.23632106 -0.40247244 0.24797072 -0.3177664
000060 09 60 b8 3b 56 26 8e bd 56 b8 44 be 2b 7e 90 3c
       0.0056266827 -0.06940906 -0.19210944 0.017638287
000070 12 3f c4 3e 80 9a 96 3c 0d 31 78 be 18 9c 1a be
       0.3832937 0.018384218 -0.24237461 -0.15098608
000080 1b c2 d0 be ef 9a 3c 3e f9 4c d5 bd f5 ca ad be
       -0.4077309 0.18418477 -0.10415072 -0.33943906
000090 49 d6 70 be b5 5b 70 3e 47 34 11 3e 8a 7c b5 3e
       -0.23519243 0.23472483 0.14180098 0.35446578
0000a0 92 fd d6 3d 94 8a 3f be ff a4 e9 bd bc 01 f7 3d
       0.104975834 -0.18705207 -0.11408424 0.12060878
0000b0 d8 15 b7 3e 2c 9f 0e 3e 51 c3 68 be 85 ed 94 be
       0.35758853 0.13927907 -0.22730757 -0.29087463
0000c0 f9 9f c5 be d9 a2 b4 3d ed 7a 35 be ef 37 c5 be
       -0.38598612 0.08820123 -0.17722674 -0.38519236
0000d0 83 14 d7 3e 31 c2 68 be f9 3a 3e bd fd 88 ef 3d
       0.42007837 -0.22730328 -0.04644296 0.1169605
0000e0 5e 8c f1 3b 17 0f 86 be 40 56 7c be 3c b4 aa 3e
       0.0073714694 -0.26183388 -0.24642277 0.33340633
0000f0 f2 25 88 3d 25 69 ad 3e c7 5d 11 be c6 dd cc 3d
       0.066478625 0.3386928 -0.1419593 0.100032374
000100 0f 00 28 bd a6 72 b5 39 d1 9b 7e be 36 62 0d 3e
       -0.04101568 0.0003460843 -0.24864127 0.13806996
000110 8a 51 c6 3d 78 02 ba bc d6 95 19 be 2f 56 6c be
       0.09683521 -0.022706255 -0.14998564 -0.23079751
000120 82 8c 90 3e 13 9a 9b be e7 99 3a 3e 1d 69 21 be
       0.282322 -0.30390987 0.18222772 -0.15762754
000130 5b 74 3d be 01 28 33 3e 35 28 59 be c8 a3 c0 3d
       -0.18501417 0.17495729 -0.21206744 0.09406239
000140 13 ce c9 3d 7d 96 9f be 3e 75 20 3c 2f fd 70 3e
       0.09853759 -0.311695 0.009793578 0.23534082
000150 c5 79 25 3e 12 7e 52 bd 02 b1 b8 be 6b 6a 6e bd
       0.16159733 -0.05138976 -0.36072546 -0.058206957
000160 ea 8e c0 3d 71 7c f6 bd b6 ae 1e 3e 9b 33 8b 3e
       0.09402259 -0.12035454 0.15496334 0.2718781
000170 18 4f 49 be d5 28 12 bb ef 7b 61 3e 50 ba 84 3c
       -0.19659078 -0.002230217 0.22019933 0.016202122
000180 1d ae 0b 3d 4f cc 50 3d 9c 4a ad be 4a d3 7b bb
       0.034101594 0.050976094 -0.33845985 -0.0038425499
000190 71 6c b6 3e 50 47 c8 3e 03 b5 75 3e f0 13 60 3d
       0.3562961 0.39116907 0.23994832 0.054706514
0001a0 60 a4 21 3e b1 38 61 be 89 0f 93 be 14 56 7a be
       0.1578536 -0.21994282 -0.2872279 -0.24446899
0001b0 05 86 d0 3e 87 af 84 3e 48 f4 98 be da f9 15 3e
       0.4072725 0.25915167 -0.29873872 0.14646092
0001c0 ae a2 a8 3e 1b 7e bf 3e cd c4 b6 3e 04 f1 a1 3e
       0.32936615 0.37400898 0.35697022 0.31629193
0001d0 07 28 c1 bd d6 5e fb bd 89 97 97 3e db 3f 85 3e
       -0.09431463 -0.12273948 0.296078 0.2602528
0001e0 4b 92 7b be 57 ea bb 3e 16 00 10 3e 5c bd 77 3e
       -0.24567525 0.36702225 0.14062533 0.24193329
0001f0 e4 54 41 be 56 e4 6a 3d 24 8d 12 be 54 52 a3 3e
       -0.1888004 0.057346664 -0.14311653 0.3189875
000200 be 7a a9 bd f6 dc 3c 3e 94 e5 ba 3c e5 5a c9 3d
       -0.08275364 0.18443665 0.02281455 0.0983179
000210 4a 10 0e be d0 d3 4b 3e 98 b2 ac be 07 81 e5 3d
       -0.13873401 0.19905019 -0.33730006 0.11206251
000220 40 d5 5c be b2 7b dd be 73 db a7 be 7b 04 a5 3e
       -0.21565723 -0.43258435 -0.32784614 0.3222998
000230 01 f6 51 3e 2b 43 d2 3e 08 45 96 3e 7d 1e bf be
       0.20504 0.4106687 0.29349542 -0.37327948
000240 d6 a4 8e be 16 19 87 bd 2a 20 87 be c8 93 93 3e
       -0.27860135 -0.06596582 -0.26391727 0.28823686
000250 b7 17 84 be dd 03 5f be 7a ef c9 be 0b 58 6d be
       -0.25799343 -0.21778817 -0.3944052 -0.23178117
000260 3a 98 c1 3e 38 37 ae 3e b1 7f 54 3e 1d bf 7b 3e
       0.37811452 0.34026504 0.20751835 0.24584623
000270 4d dc b9 3e a4 17 d6 bd e5 96 4f 3e 8d 1e b4 3e
       0.3630089 -0.10453728 0.20272405 0.35179558
000280 45 85 02 3e 9e 5e 82 3e 3a d3 58 3e 5a f0 81 3e
       0.12746151 0.25462812 0.21174327 0.25378686
000290 00 0d 25 be 42 6c 33 3e d7 9f 21 3e 9b fd 83 bd
       -0.1611824 0.17521766 0.1578363 -0.06444856
0002a0 24 a8 6b be 9c 92 6a be 91 ee b2 be fb f5 8a 3e
       -0.2301336 -0.2290749 -0.34947637 0.27140793
0002b0 80 4a 93 3e f5 93 11 be e3 ea 71 be 1c 8e a1 3e
       0.28767776 -0.14216597 -0.23624758 0.31553733
0002c0 8a 57 93 3e 6c 8f 2b 3d a4 00 86 be a1 4d 89 3e
       0.28777725 0.041884825 -0.26172364 0.2681704
0002d0 c4 f4 2a 3e cf ad 9e be d4 16 c2 3e 0d f3 9b 3e
       0.16694933 -0.3099198 0.3790804 0.3045887
0002e0 c2 7b 47 be bf fb 13 3e 80 87 6d be 16 07 83 bd
       -0.19480804 0.14451502 -0.2319622 -0.06397836
0002f0 b9 b5 b7 3e fa 8a f5 3c 32 5e 53 be df 4d 41 be
       0.3588083 0.029973496 -0.20641401 -0.18877362

k_hist_emb.0.bias f4 [32]
000000 66 a8 ce bd 33 e6 71 3b e1 20 2f 3a be e0 a5 3e
       -0.10090713 0.003691089 0.00066806196 0.32398027
000010 b3 3e c8 bc 8e 50 4f be a8 97 18 3c 6a de 18 3e
       -0.02444396 -0.20245573 0.009313501 0.14928594
000020 f4 c6 16 3e 28 7a a8 be 9b 37 80 bd 6e 21 84 be
       0.14724332 -0.32905698 -0.06260606 -0.25806755
000030 8b 88 0d be 64 48 b9 3d 47 16 7b be 1b 4d d5 3d
       -0.13821618 0.090470105 -0.24520217 0.10415097
000040 d2 ab 98 3e 0c 57 40 bd fb 35 64 be bf 60 e9 bd
       0.29818588 -0.046958014 -0.22286217 -0.11395406
000050 94 10 55 3d e1 10 86 be 38 7b 20 3e ee 68 a3 be
       0.052017763 -0.26184753 0.15672004 -0.31915992
000060 d8 dd ae be 9f 24 b1 be 10 b2 e5 3b b5 c4 69 3e
       -0.34153628 -0.34598252 0.007009752 0.22828944
000070 bb c6 ab be 61 e9 94 3e 12 c4 e0 bd 5e 6c 92 3d
       -0.33550057 0.29084304 -0.109748974 0.07149576

k_hist_emb.1.weight f4 [8]
000000 09 96 86 3f 00 00 80 3f 00 00 80 3f 00 00 80 3f
       1.0514537 1.0 1.0 1.0
000010 00 00 80 3f 00 00 80 3f 00 00 80 3f 00 00 80 3f
       1.0 1.0 1.0 1.0

k_hist_emb.1.bias f4 [8]
000000 5c 80 a0 3a 00 00 00 00 00 00 00 00 00 00 00 00
       0.0012245285 0.0 0.0 0.0
000010 00 00 00 00 00 00 00 00 00 00 00 00 00 00 00 00
       0.0 0.0 0.0 0.0

k_hist_emb.1.running_mean f4 [8]
000000 ae 89 36 bd b2 8f 46 bd 17 20 55 bd 1d 5c 5c bd
       -0.044564895 -0.048476882 -0.052032556 -0.053798784
000010 fb 2a 71 bd 55 35 81 bd 09 c9 89 bd 53 2a 90 bd
       -0.05887888 -0.063090004 -0.067277975 -0.07039323

k_hist_emb.1.running_var f4 [8]
000000 c3 0d a9 3d 08 3e 8c 3e e7 d0 f0 3e 39 d1 2a 3f
       0.08254578 0.27391076 0.4703438 0.667255
000010 b6 0d 60 3f a0 0b 8f 3f 09 fa ae 3f e2 f9 c9 3f
       0.8752092 1.1175423 1.3670055 1.5779383

v_hist_emb.0.weight f4 [32, 6]
000000 56 83 98 3c eb 7a bc be 8d 04 ac 3e 16 3e 69 3e
       0.018617313 -0.3681253 0.33597222 0.2277759
000010 78 fa ce 3e 70 bb 18 3e 3d f8 89 be 83 72 ae 3e
       0.40425467 0.14915252 -0.26947203 0.3407174
000020 34 fb 03 3c e9 80 4f 3e 18 d0 aa be 59 46 f6 bd
       0.008055497 0.20264019 -0.33361888 -0.120251365
000030 31 3c cd be 6e d3 22 be e2 c9 f1 3d f9 d8 9f be
       -0.40084985 -0.15900967 0.11806084 -0.31220224
000040 2f 51 55 3e 4d a1 3e 3e 6f f3 68 3d 99 da 8b be
       0.2083175 0.18616219 0.05687278 -0.27315214
000050 2f 75 af be 3c 56 06 be f7 e5 79 3e 2e eb ad 3e
       -0.3426909 -0.13118833 0.24404131 0.3396849
000060 84 63 70 3e b4 4d 3c bd 72 b8 10 3e fe fc ca be
       0.23475462 -0.04597254 0.1413286 -0.39646143
000070 e3 2a 9b be 8f da 44 3e aa c9 6c be c9 1e 49 3e
       -0.30306157 0.19223998 -0.23123804 0.1964065
000080 a6 8a 8f be c4 b1 3d be b4 22 6b be 2c 50 52 3e
       -0.28035468 -0.18524843 -0.22962457 0.20538396
000090 30 63 2a bd 4c dd a0 3e f6 fd 75 3e a1 b2 66 3e
       -0.0415985 0.31418836 0.2402266 0.22529079
0000a0 8c 4a 1d bd 22 bc 48 bd 01 cb b5 bd 01 3c 5e 3d
       -0.03840117 -0.049007542 -0.088766105 0.054256443
0000b0 f9 7b 3a 3e 09 35 97 be ec 12 82 3e a0 b9 0f bc
       0.18211354 -0.2953265 0.2540506 -0.008772284
0000c0 67 26 af be ed 2f 62 be 6c 84 a1 3e 6e df cb 3e
       -0.34208986 -0.22088595 0.31546342 0.398189
0000d0 c9 c3 d1 be a7 75 8d 3e fa 81 51 3e 06 73 77 3e
       -0.40969685 0.27628824 0.20459738 0.24164972
0000e0 19 ba ac 3e e2 f1 5a be e3 ac e0 3d fc 49 30 3e
       0.3373573 -0.21381333 0.109704755 0.17215723
0000f0 4f 0f f7 bd 87 e6 0b 3e 68 81 29 be 46 06 73 3e
       -0.12063467 0.13662158 -0.16553271 0.23732862
000100 00 33 16 be c0 d1 80 bd 49 7c d2 3d 42 47 14 3e
       -0.14667892 -0.06290007 0.10277612 0.14480308
000110 39 e7 40 be b6 07 14 3d 92 18 88 3e 80 b4 a3 bd
       -0.18838204 0.036140166 0.26581246 -0.07993412
000120 8a 73 fe 3d 96 a7 c9 bd b1 8b 0d 3e 78 df 97 be
       0.12424381 -0.098464176 0.1382282 -0.2966268
000130 15 fa 86 be 67 6e 48 be 33 18 c0 3e ad fa e0 bd
       -0.26362672 -0.19573365 0.37518463 -0.109853126
000140 4f 6c 30 3c f1 6a 43 be e9 9f c4 3e df c3 c4 3e
       0.01076801 -0.19083764 0.38403252 0.38430688
000150 78 a4 9d be e2 72 a9 be 49 ab 98 be 64 ad 20 bc
       -0.30789542 -0.3309546 -0.2981818 -0.009806965
000160 47 f4 4b bd 64 36 8d be 09 f1 15 be b4 f6 9d 3d
       -0.049793508 -0.2758056 -0.14642729 0.077130705
000170 52 d9 5d be 85 f2 c0 3d eb d2 a5 bd fb 59 87 be
       -0.21664932 0.09421257 -0.0809687 -0.26435837
000180 e5 bb 65 3d f9 de ab 3e 48 df 82 be dd 1c 07 bc
       0.056087393 0.33568552 -0.25560975 -0.008246628
000190 87 68 8d bd 66 e4 9f 3e 3f 50 c6 be e3 61 c8 be
       -0.06904703 0.31228942 -0.38733098 -0.39137182
0001a0 de cf cf 3e f1 ff 81 be e5 ee da bc e5 62 cf 3c
       0.40588278 -0.2539058 -0.026725242 0.025315711
0001b0 f5 20 b0 bd 4a bd ba bd 44 9c 94 3e a2 64 14 3d
       -0.08600036 -0.09118135 0.2902547 0.036228783
0001c0 2b 36 bf be ba 7d 60 be 19 83 0e be 24 5e 52 3e
       -0.37346014 -0.21922961 -0.13917197 0.20543724
0001d0 8b de 9e be c9 a0 bc 3e 09 e7 c0 bd b4 39 b7 bd
       -0.31029162 0.3684142 -0.094190665 -0.08946553
0001e0 21 c8 a3 3e ff 1c 52 3e 6d 69 9d 3e ed aa 55 3e
       0.31988624 0.20518874 0.30744496 0.20865984
0001f0 6c 85 45 be 94 26 7c be d2 d4 f8 bc d2 fe ac 3e
       -0.19289178 -0.24624091 -0.030374918 0.33788162
000200 24 f9 2f be 50 b3 c3 be b1 9e d9 3d e2 f7 c0 3e
       -0.17184883 -0.38222742 0.10625971 0.3768912
000210 82 05 ee bd 7a 13 ad be 12 03 c4 be ff e8 ce 3d
       -0.11622144 -0.33803922 -0.38283592 0.10103034
000220 d2 0f 8e bc 81 1c 71 be 3e 00 a9 3d bb c1 1e 3e
       -0.017341528 -0.2354603 0.08251999 0.1550359
000230 56 97 9d 3e 85 8b a1 3e ab 1c c3 bd a0 63 8d be
       0.30779523 0.31551757 -0.09526952 -0.2761507
000240 cd e0 bc be a8 29 c3 3e 27 29 6c 3e ae c3 3b 3e
       -0.3689026 0.3811772 0.23062573 0.18336365
000250 3a 66 bc be 90 f7 a3 3e 42 04 c6 3e fc b7 bc 3e
       -0.36796743 0.32024813 0.38675123 0.3685912
000260 8d 5b b7 be ad 74 19 be 57 c6 5d be 01 1c 88 3e
       -0.35812035 -0.14985915 -0.21657692 0.26583865
000270 49 a0 33 be 65 dc 3e be f1 6a 48 3e 40 bf 3a be
       -0.17541613 -0.18638761 0.19572045 -0.18237019
000280 a6 5a 85 be 77 b2 26 bb c9 ba 20 bd 14 d3 a2 be
       -0.26045722 -0.0025435963 -0.039240632 -0.31801665
000290 e0 c5 c4 3e 4a 65 2e be fc 04 10 3e 58 13 bb 3e
       0.38432217 -0.17030826 0.14064401 0.36538196
0002a0 de d3 52 3e 6c bf 6c 3d 29 2f ae 3e cb 77 6e 3d
       0.20588633 0.05779974 0.34020355 0.058219712
0002b0 de 2d 87 be 5f 81 e0 3e 06 e3 c5 3d 9b f0 cb be
       -0.2640218 0.43848702 0.09662442 -0.39832005
0002c0 d2 2c bf bd 42 71 8d be 70 eb a6 3e 4f 3b 8e bd
       -0.09334721 -0.2762547 0.326015 -0.06944906
0002d0 a0 87 be be 02 3d d2 bc 7a 3d 6c 3e a6 0d d8 3d
       -0.3721285 -0.025663856 0.23070326 0.10549478
0002e0 f8 04 04 3e a5 f1 78 3d 00 db 1b 3e 32 b7 cb bd
       0.1289252 0.060777325 0.1522026 -0.09947051
0002f0 20 11 05 be 36 75 cc be 03 16 9b be d1 79 12 3e
       -0.12994814 -0.39933175 -0.3029023 0.14304282

v_hist_emb.0.bias f4 [32]
000000 c1 fa 39 be 9f 9c f2 3d ef a7 2a 3e 43 48 70 3d
       -0.18162061 0.11846279 0.16665624 0.058662664
000010 89 e1 ac be e4 71 d0 3e 75 07 49 be 44 12 96 3e
       -0.3376582 0.40711892 -0.19631751 0.2931081
000020 2c fe 9d be fd c5 b7 bd 30 69 35 3e 20 61 08 be
       -0.3085798 -0.0897331 0.17715907 -0.133183
000030 80 4f a8 3e 50 8d a3 be bb 30 ca be 6f e1 47 be
       0.32873154 -0.3194375 -0.39490303 -0.1951959
000040 1a 1d 7e 3d 8c 93 c3 3e a4 fb 3b be 5a 72 e0 3d
       0.062039472 0.38198507 -0.18357712 0.10959311
000050 01 9a 58 be 5e ff 0a be 25 b1 b2 3e 23 29 94 be
       -0.21152498 -0.13573977 0.34900776 -0.28937635
000060 06 36 ba 3d 81 e4 e1 3e c2 c5 ca bd 8b 10 bc 3e
       0.090923354 0.44119647 -0.099010006 0.3673137
000070 0c a0 19 be fe 21 ce 3e 42 a4 f0 be 7a cd b9 bd
       -0.1500246 0.4026031 -0.4700032 -0.09072395

v_hist_emb.1.weight f4 [8]
000000 c0 80 75 3f 00 00 80 3f 00 00 80 3f 00 00 80 3f
       0.9589958 1.0 1.0 1.0
000010 00 00 80 3f 00 00 80 3f 00 00 80 3f 00 00 80 3f
       1.0 1.0 1.0 1.0

v_hist_emb.1.bias f4 [8]
000000 7e e5 0b bd 00 00 00 00 00 00 00 00 00 00 00 00
       -0.034154408 0.0 0.0 0.0
000010 00 00 00 00 00 00 00 00 00 00 00 00 00 00 00 00
       0.0 0.0 0.0 0.0

v_hist_emb.1.running_mean f4 [8]
000000 b3 97 8c bb ac e1 70 39 ab ff 9b 3b e2 d3 18 3c
       -0.004290545 0.00022972253 0.0047607026 0.009327861
000010 61 f3 5e 3c 26 84 9c 3c b2 8a cc 3c 2d 48 f1 3c
       0.013607831 0.019105982 0.024968479 0.029453361

v_hist_emb.1.running_var f4 [8]
000000 7b 4a f4 3d 2c 8e b5 3e 58 3d 19 3f 1f 6b 56 3f
       0.119282685 0.3546003 0.5985923 0.83757204
000010 df 45 8c 3f 73 b1 b2 3f a3 ea d9 3f df eb fa 3f
       1.0958823 1.3960403 1.702473 1.9603232

hist_enc.in_proj_weight f4 [96, 32]
000000 d2 c2 62 3d 60 c6 12 be 4a 0c bc 3c 0f 20 46 3e
       0.055361576 -0.14333487 0.022955079 0.19348167
000010 c3 96 1a 3e c4 43 2e 3e af c6 17 3e 93 9b 31 bd
       0.15096574 0.17018038 0.14821886 -0.043361258
000020 09 aa 93 3d a3 58 d7 bd 7c 6f 43 3e ce 78 0a 3e
       0.07210166 -0.10514953 0.19085497 0.13522646
000030 73 9a 09 be 6b 20 41 3e 1e dd aa bb 89 b5 b6 3b
       -0.13437824 0.18860023 -0.0052143475 0.00557584
000040 af cd b6 bd 59 16 8d bd 60 a7 5f 3c ee 5e f8 bd
       -0.0892595 -0.06889028 0.013650745 -0.121274814
000050 13 74 3f be 54 bf ff bd 88 47 f0 bc 9b 18 36 3e
       -0.18696623 -0.12487665 -0.029330984 0.17782824
000060 6b 70 41 3e 50 93 c5 bd 9e 3d 16 bd 2a 0d f9 bc
       0.1889054 -0.09647238 -0.036679856 -0.030401785
000070 f8 ed e8 bd e6 8c 8c bd b5 1f 88 bd a2 b4 dc 3d
       -0.11373514 -0.06862812 -0.06646673 0.107766405
000080 0f a9 d8 bd f7 d6 7e 3d 6f 0a e6 bd 73 24 3f bd
       -0.1057912 0.062216725 -0.11232459 -0.04666562
000090 75 77 1a 3e 84 96 da bd 9a 52 1b bc 77 16 50 3e
       0.15084632 -0.1067324 -0.009480143 0.2032107
0000a0 95 3b 9e 3d 48 a0 0b be db 40 dd bd 8b 64 7f bd
       0.07726208 -0.13635361 -0.10803386 -0.062351745
0000b0 ac 8f 85 bd 70 ce e5 3d cd e4 8f bd a2 6d 39 3e
       -0.06521544 0.112210155 -0.07026062 0.18108228
0000c0 30 11 ff bd 0b 0b 6a bd 5e a9 dd 3d 48 9d 36 3e
       -0.1245445 -0.057139438 0.1082332 0.17833436
0000d0 48 17 6e 3e 59 de a3 3c f5 1e 31 b9 14 46 cb bd
       0.23251069 0.020003485 -0.00016891568 -0.09925476
0000e0 99 e2 f5 3d b2 fb cc bd 8b 20 92 bd 72 f6 1d be
       0.12006111 -0.100089446 -0.07135113 -0.15426043
0000f0 2d c8 68 be 91 fd b5 3d 36 c6 07 3c 77 0b 43 3e
       -0.22732611 0.088862546 0.008287003 0.19047342
000100 6e ec 2d 3e 79 e0 b6 3d e5 db a7 3d 89 84 9e bd
       0.16984722 0.089295335 0.081962384 -0.07740123
000110 a3 60 fe 3d d4 23 d0 3d a1 9c 90 3d 15 f7 b3 ba
       0.12420776 0.10163084 0.070611246 -0.0013730252
000120 b4 76 c7 3c 22 b1 c4 3c 03 64 32 be 57 d2 05 3d
       0.024348594 0.024010245 -0.17420964 0.0326713
000130 74 90 25 be 45 e6 be 3d 79 e6 dd bd ce 22 91 bd
       -0.16168386 0.09321264 -0.10834975 -0.070867166
000140 5f be c3 bd e3 ac 26 3e 18 0a 2d be 4c 79 dd 3d
       -0.09557795 0.16276889 -0.16898382 0.10814151
000150 8b 0f b9 3d 77 b2 2e 3e 81 77 72 3d 1e 17 f7 3d
       0.09036168 0.17060266 0.059196 0.12064956
000160 c6 2d 2b 3e 6a 06 8a 3c bd 1c b7 3d 4e 2e 45 be
       0.1671668 0.016848762 0.08941028 -0.19255945
000170 99 12 3a bd 18 41 48 3d 26 0e 06 3d a3 28 aa bd
       -0.045427892 0.048890203 0.032728337 -0.08308532
000180 fe da 62 be cd ea ad bd 8a a9 7f 3d 86 4c 32 3e
       -0.22153851 -0.0849205 0.062417544 0.17412004
000190 c0 f3 28 be c2 ed 9f 3d 36 0f 42 be dd 81 66 be
       -0.16499233 0.078090206 -0.18951115 -0.22510476
0001a0 a5 b6 0e be ca 8c 35 bc 98 99 15 3d da 59 2e be
       -0.13936861 -0.01108093 0.03652343 -0.17026463
0001b0 6e b7 36 3e c0 ae 29 3e 9a 5e 0f 3d cf 18 39 3e
       0.1784341 0.16570568 0.03500233 0.1807587
0001c0 d1 39 ed bd b4 54 04 be ec 0e 74 bd d5 92 96 ba
       -0.11583293 -0.12922937 -0.059584543 -0.0011487851
0001d0 3b 3a 3e be 24 d3 24 be ff d2 fc 3d c1 ba ad 3d
       -0.185769 -0.16096169 0.12344932 0.08482886
0001e0 37 12 82 3e 1e 4d d9 bd 23 46 96 3d 1e 81 cb bd
       0.25404522 -0.10610412 0.07337596 -0.099367365
0001f0 f9 d4 12 3e bb 11 b6 ba 39 14 41 3e 5d 20 b7 3d
       0.14339055 -0.0013890782 0.1885537 0.0894172
000200 ea d8 48 3e ed 99 f6 3d df af 4f 3c e5 aa 34 3e
       0.19613996 0.12041078 0.012676208 0.17643316
000210 05 82 0e be 00 f0 6e 3e 25 cb 34 3e e0 0e 72 3e
       -0.13916786 0.2333374 0.17655618 0.23638487
000220 59 94 ee bd 8b 85 e1 bd 1d 6b 91 3c 64 6b 49 3d
       -0.11649389 -0.110117994 0.01775127 0.04917468
000230 cf ff a4 3d cc 54 cd 3d 77 88 39 3e 69 ee 79 bd
       0.08056604 0.10025939 0.18118463 -0.06101838
000240 f1 51 1e bd 55 fd c2 3d e8 c9 91 3d 29 00 f0 bd
       -0.038652364 0.095209755 0.07118589 -0.117187805
000250 b8 6c 10 3d 5f 57 23 be 5b 42 a7 bd c9 1c e5 bd
       0.035259932 -0.15951298 -0.08166953 -0.11187131
000260 b8 ab 28 3e c1 d3 49 be 06 49 cd bd 4a c2 65 be
       0.16471756 -0.19709684 -0.10023694 -0.22437397
000270 e7 79 1d 3d 68 62 17 be 0b 88 52 3d 1c d7 0d be
       0.038446333 -0.14783633 0.051399272 -0.13851589
000280 63 1b 12 be fb 73 07 be 1f f0 bd 3c 30 5d 3b 3e
       -0.1426826 -0.13227837 0.023185788 0.18297267
000290 c1 a0 5a 3e e9 ef 77 bc 40 eb 5b be da 12 8c bd
       0.21350385 -0.015132883 -0.2147646 -0.06839533
0002a0 d8 10 a9 bd 88 99 cf bc ec 56 83 3d 11 13 ce 3d
       -0.08255166 -0.025341764 0.064130634 0.100622304
0002b0 bd 08 c2 3d 55 00 5b 3d fe 35 92 bd 17 50 a9 3a
       0.09474323 0.053467114 -0.071392044 0.0012917545
0002c0 fe 74 07 3d 28 4c ee bd 76 b6 28 bd 65 33 ef bc
       0.033070557 -0.116356194 -0.041189633 -0.029199312
0002d0 bf 97 63 be 3c 1d 1e 3e f3 4f 98 bc a5 38 3c be
       -0.22225855 0.1544084 -0.01859281 -0.18380983
0002e0 56 b3 2a 3e 04 dd 0a be fd 17 b5 3d fd 7f 3d 3e
       0.16669974 -0.13560873 0.08842466 0.18505855
0002f0 00 17 c0 3c 19 07 c1 3d 64 2b bd 3d 93 92 1d 3e
       0.023448467 0.09425182 0.09236792 0.15387945
000300 94 3c 07 bd d0 ea d7 bd fe af 57 3a d6 34 25 3e
       -0.033016756 -0.10542834 0.0008227824 0.16133437
000310 94 c7 9d bb e9 11 52 3e 7e 2c 85 bd eb ff fb 3d
       -0.0048150513 0.20514645 -0.06502627 0.12304672
000320 14 76 70 bc 59 38 f6 3a 4a b8 44 be 82 50 5f be
       -0.0146765895 0.0018785103 -0.19210926 -0.21808055
000330 68 71 17 bd b1 6f 05 3e b3 41 0b 3e 6f a7 63 bc
       -0.036973387 0.13030888 0.13599281 -0.0138949
000340 a2 f8 1c 3e a2 3a 03 3e bf b3 28 be 93 6f 2a be
       0.15329221 0.12815335 -0.16474818 -0.16644125
000350 ae 3e 12 be 9e a4 0b 3c a3 d8 2c be d2 74 fb bd
       -0.14281723 0.0085231345 -0.16879515 -0.12278141
000360 33 da 94 bd 4d 09 b4 3d 97 41 ac 3d 0d c2 48 3e
       -0.07268181 0.087908365 0.08410948 0.19605274
000370 34 ae 2b 3e 2d d8 f9 bd cd 60 19 bd 91 2d 75 3d
       0.16765672 -0.121994354 -0.037445832 0.05985791
000380 eb 72 43 3e 03 8d c2 bd fc f1 ba bd 01 dd 25 be
       0.19086806 -0.09499552 -0.09128186 -0.16197588
000390 f4 de 31 3e f9 64 6a bd c6 5c b7 bd 8e 76 1d 3e
       0.17370206 -0.0572252 -0.08953242 0.15377256
0003a0 49 9c 44 3e 7f 97 99 3c ce 33 2f be 6a 6b 22 3e
       0.19200243 0.018748997 -0.17109606 0.15861288
0003b0 5a 9f a5 bd 40 9c e9 bd a7 08 03 be 0d 27 d8 bd
       -0.080870345 -0.114067554 -0.1279627 -0.10554323
0003c0 3f b6 23 be 83 50 06 be b4 b2 63 be e7 86 3c bd
       -0.1598749 -0.1311665 -0.22236139 -0.04602709
0003d0 4a 08 86 3d 4f b1 15 be 1a 47 99 3b a5 aa a6 bd
       0.0654455 -0.14618419 0.0046776654 -0.081380166
0003e0 d2 12 d1 3d a7 0d 24 3e d2 ff 10 bc 3b ee 08 be
       0.10208668 0.16020833 -0.008850055 -0.13372128
0003f0 19 ed 1b be b2 44 bb bd 07 f6 85 3d 79 33 1c 3d
       -0.15227164 -0.09143962 0.065410666 0.038135026

hist_enc.in_proj_bias f4 [96]
000000 3b e5 55 bd 01 72 70 bc 14 9d 07 3c 11 8b 4c bd
       -0.052220564 -0.014675618 0.008277196 -0.04993731
000010 ab 0a 73 3d 57 82 d8 3c c5 09 8f 3d 77 32 bb 3c
       0.059336346 0.026429338 0.06984285 0.022851212
000020 f3 59 01 3d d3 ff 17 bd b3 81 aa bc ea cf 02 3d
       0.031579923 -0.037109207 -0.020813799 0.031936564
000030 83 20 8e bb 59 5e cf bc 06 d7 a6 3c 42 87 0f 3d
       -0.004337372 -0.025313543 0.020366203 0.0350411
000040 b7 e5 f5 bc 6c 37 54 3d 3f 8d 9d 3c 9e 03 6e bd
       -0.030016763 0.051810667 0.01923239 -0.05810892
000050 13 f8 57 bd 95 07 62 3c e8 3b 21 bd 01 e6 9e ba
       -0.052726816 0.013795753 -0.03936377 -0.001212299
000060 53 63 07 bd 83 27 70 bd 19 28 cd 3b 76 3a 38 3c
       -0.033053707 -0.05863143 0.0062608835 0.011244407
000070 ed ae 93 3c f9 c4 09 bc ee 83 0a 3d bc 3d a4 39
       0.018027747 -0.008408778 0.033817224 0.00031326513
000080 b6 c8 f0 3a f5 83 c3 b9 e7 2d 4a ba 30 e1 0a 3c
       0.0018370363 -0.00037291614 -0.00077125285 0.00847654
000090 f5 6c 16 39 81 09 91 3a e0 e5 01 bb a8 32 59 3b
       0.00014345704 0.0011065454 -0.0019820854 0.0033141766
0000a0 df 1d 5b ba 59 51 ed 3a 6f 1f 25 3b 63 fe 4c bb
       -0.0008358638 0.0018105909 0.0025195738 -0.0031279556
0000b0 7a 24 6a 3a da f0 a2 b9 6b 00 d9 b9 7a 9a 59 b9
       0.0008931827 -0.00031078496 -0.00041389777 -0.0002075228
0000c0 f0 0f 62 ba 8d e8 38 3b 94 b0 a9 3a 64 5f c2 39
       -0.00086235907 0.0028214783 0.0012946301 0.00037073635
0000d0 e9 31 11 bb 9a 59 3a bb ea e4 1b bb ee 39 cc ba
       -0.0022154993 -0.0028434754 -0.0023787566 -0.0015581229
0000e0 b1 ea 07 ba cd ec 0b 3a d7 81 eb ba 62 c7 0a ba
       -0.0005184813 0.0005337715 -0.0017967772 -0.00052939926
0000f0 02 b8 f9 b9 ff 65 e5 3a fa 22 0b 3b a3 49 c2 b9
       -0.00047630077 0.0017501711 0.0021230564 -0.00037057427
000100 92 f3 15 bc bb c2 20 bc ef d7 b0 bd f0 62 82 bd
       -0.00915231 -0.009812052 -0.08634936 -0.06366527
000110 06 03 30 3d 49 93 6d 3b cd a3 48 bc 47 e2 a6 bc
       0.042971633 0.003625112 -0.012246084 -0.02037157
000120 99 53 0d 3d f8 88 26 bd eb 2f eb 3d 80 9b 8a bd
       0.034503553 -0.040657967 0.11483749 -0.067679405
000130 5b b9 2d bd 15 25 da 3d a2 0b 90 3d 1c 1b 86 3d
       -0.042413097 0.10651604 0.07033469 0.065481395
000140 e8 c5 cf bc e3 39 12 bd 02 45 85 bb 11 54 61 bc
       -0.025362924 -0.035699736 -0.0040670643 -0.013752953
000150 46 67 ec 3c c4 b1 56 bd 5f b3 50 bd d8 b5 b4 3c
       0.028857838 -0.052415624 -0.05095231 0.022059366
000160 54 ba 39 3d a3 e5 0b bd 7d 86 8f 3c 4b e5 11 bd
       0.045343712 -0.034154546 0.017520184 -0.03561906
000170 ab cf 52 bd 6c a6 92 bd ab b0 00 bd 62 7c 87 bd
       -0.05146758 -0.07160649 -0.031418484 -0.06615521

hist_enc.out_proj.weight f4 [32, 32]
000000 6c bd 1b bd 5a 5d 70 3d 09 41 82 3d a1 f4 05 3e
       -0.038022444 0.058682777 0.06360061 0.130816
000010 16 e8 99 bc 98 38 d7 bb f4 ef 04 3e 3b 9f 52 bd
       -0.018787425 -0.006568026 0.1298216 -0.051421385
000020 d5 e9 19 3e 44 c8 fe bd 1d aa 74 bc 1c 8c 15 3c
       0.15030606 -0.124405414 -0.014933136 0.009127643
000030 37 f5 df 3d d5 e7 b4 3d e2 73 7f bd eb ae e6 bd
       0.10935443 0.08833281 -0.062366374 -0.11263832
000040 19 02 d3 3d 63 0b 9d 3d e8 72 8f 3d ed 8e 06 be
       0.103031345 0.076681875 0.070043385 -0.1314046
000050 06 5e cd 3d 8d 21 3c 3e 53 b2 25 3c d8 ed 17 be
       0.10027699 0.18372174 0.010113317 -0.14836824
000060 76 7d 05 3e 83 84 1c be 91 f5 34 3d 18 01 f3 3c
       0.13036141 -0.15284924 0.044179503 0.029663607
000070 ed b4 2a bd c1 6a 48 3d 78 45 2e be a8 40 2e 3d
       -0.04167645 0.048929933 -0.17018688 0.04254213
000080 72 ad d7 bd 02 67 85 bc 15 ff 28 3c b2 a1 e9 3d
       -0.10531129 -0.01628447 0.010314723 0.11407794
000090 87 3c ac bd ab 7e d4 3d 3f 43 ae bc 7b 13 ae bd
       -0.08409982 0.103757225 -0.0212723 -0.08499809
0000a0 29 cd 2c be 9b f0 20 be 4d aa 47 3e bc 6a 29 bc
       -0.16875137 -0.15716784 0.19498558 -0.010340389
0000b0 7e df 80 3c e7 70 6c 3d 35 23 5d 3d eb 19 5a 3e
       0.01573157 0.05772486 0.053988654 0.2129895
0000c0 98 b4 0c 3e 26 35 ef bd 77 2d 92 bc 3b eb 0a be
       0.13740766 -0.11680059 -0.017843945 -0.13566296
0000d0 d5 7e c7 bd b0 65 2b 3d 3f 31 0f 3e cd f3 07 be
       -0.09740988 0.041845024 0.1398363 -0.13276596
0000e0 db 14 c7 3d 9a 5f d0 bd c9 72 89 bc 51 17 07 3e
       0.09720775 -0.101744846 -0.016778367 0.13192488
0000f0 47 49 58 bd aa 79 8a 3c 8a 96 fa bd 89 70 07 3e
       -0.052804258 0.016903717 -0.12235744 0.13226523
000100 e6 41 07 bd 9d 56 ee bd 2a db 18 3d 07 2d 02 be
       -0.03302183 -0.11637614 0.037318386 -0.12712489
000110 fd 21 04 be bd d8 23 3c ba 69 07 3e ad bb 80 bd
       -0.1290359 0.010000405 0.13223925 -0.06285796
000120 58 41 93 3d b7 5d 1e 3e da e3 f7 3d 3f d4 86 bd
       0.07190198 0.15465437 0.12104006 -0.065834515
000130 d7 33 48 bb 21 dc 96 bd ed 69 38 be 4d 0e 25 3d
       -0.0030548477 -0.07366205 -0.18009157 0.04029684
000140 87 f2 0d 3e 0d 54 2c 3e e6 2d b2 3c ca 54 a2 3c
       0.13862048 0.16828938 0.021750402 0.019815821
000150 78 5f a3 bd 34 70 0d 3e 8b 6d a8 bd 55 94 ee bd
       -0.079771936 0.13812333 -0.08224019 -0.11649386
000160 20 80 e3 3c ad 2a c8 3d 5b 40 1e be e4 5c 25 3e
       0.027771056 0.09773765 -0.15454237 0.16148716
000170 20 55 cf 3d c9 13 fe bd 23 8b 2d bd ac 74 17 3e
       0.10123658 -0.124061175 -0.04236902 0.147906
000180 ff 85 0b be 9e f5 59 bd 70 2c 2a 3d d3 16 7c be
       -0.13625334 -0.053212754 0.041546285 -0.24618082
000190 2e a2 dd 3d b7 6d f4 3d de 8e 04 3e 1e 56 eb bd
       0.10821949 0.11934989 0.12945125 -0.11491035
0001a0 95 c4 25 3e 0c dd d3 bd 6d 21 5c 3e 78 bb 09 be
       0.16188271 -0.10344896 0.21497126 -0.1345042
0001b0 65 cc 2b be c1 64 1d 3e de 52 b1 bc c4 3c 95 3d
       -0.16777189 0.15370466 -0.02164596 0.07286981
0001c0 ff 6d d2 bd 48 92 88 bc 1e db a2 bd 58 97 22 be
       -0.10274886 -0.016671315 -0.079519495 -0.15878046
0001d0 c7 cf 3a 3c 56 ab 29 3d e2 6e a1 3c cb ac 92 3d
       0.011402077 0.041423164 0.019706193 0.07161864
0001e0 06 99 33 3e 9c 9c cf 3c 12 e6 7b bd af 45 66 bd
       0.17538843 0.025343232 -0.06149871 -0.0562188
0001f0 ac 36 05 be 46 f2 13 be ca d9 42 bd ae 5d d7 bc
       -0.13009137 -0.14447889 -0.04757098 -0.026289787
000200 d5 6b 73 3d 2c 7a 7d bd 1d ca 07 3e 20 f0 9c bd
       0.05942901 -0.06188409 0.13260694 -0.07662988
000210 2d e3 64 3c 47 7f 20 3e 89 f5 20 3e 9e 5f ed bd
       0.013970179 0.15673552 0.15718664 -0.11590503
000220 b6 8c 09 3c 5f e7 40 3d dc f6 c0 bd dc 09 85 bd
       0.0083953645 0.047095653 -0.09422085 -0.06496021
000230 f0 22 f9 3c 08 63 03 be 2d ed 42 3d bc be 19 3d
       0.030412167 -0.12830746 0.04758947 0.037535414
000240 0a 38 a9 bd 28 64 0b 3e df 5b 98 3a 03 8e e5 3d
       -0.08262642 0.13612425 0.0011624059 0.11208727
000250 e6 21 42 3e 37 56 95 bd 01 aa c0 3d cd a5 90 bd
       0.18958244 -0.07291835 0.09407426 -0.07062874
000260 d6 a8 06 bd 38 76 45 3c 12 53 80 bc 31 11 a0 bd
       -0.03287586 0.012052111 -0.015664611 -0.07815779
000270 c4 99 cc 3c 05 cd 02 3d 3e af 0b 3e 96 a5 2f bd
       0.024975665 0.031933803 0.13641068 -0.042882524
000280 59 b1 fb 3c 4f 90 9e bd 54 6e 10 be fe 61 0d 3d
       0.030724214 -0.077423684 -0.14104587 0.03451728
000290 ef 86 4c 3c 12 89 ae bd 3e 4b 48 bd c4 66 6a 3d
       0.012483343 -0.08522238 -0.04889988 0.05722691
0002a0 0a 76 97 bc 4a 6f c4 3d d6 21 cb 3b ae 8a 95 3d
       -0.018488903 0.09591539 0.006199102 0.07301842
0002b0 b2 a3 b3 3d 6c 5f 38 bd 90 c5 74 3d b0 5c 22 3e
       0.08771457 -0.045012876 0.059758723 0.1585567
0002c0 c0 32 79 3c 41 c2 77 3d 9a 97 3c bb 81 68 e7 3d
       0.015209854 0.06048799 -0.0028776885 0.112992294
0002d0 9e e0 a4 bd 2c 23 ae bd 42 13 a9 3d 07 51 10 be
       -0.08050655 -0.08502802 0.08255626 -0.1409341
0002e0 38 28 78 bb 98 62 ad bd 5f 90 03 3e 14 dc 22 be
       -0.003786577 -0.08466071 0.12848042 -0.15904266
0002f0 2e 34 05 3e d0 69 29 3e 40 19 0d 3d 75 ca 48 bb
       0.13008186 0.1654427 0.03444791 -0.0030638252
000300 7d a7 44 3e 78 37 c3 bd 4a 28 d7 3c 41 aa 69 3d
       0.19204517 -0.09532064 0.026264329 0.057047132
000310 8c 52 60 bd c2 18 c0 3b f2 55 29 3c ba c7 a1 bb
       -0.054766223 0.0058623264 0.010335432 -0.0049371393
000320 ae 69 20 be ec 92 98 bc e6 2b 1b bd 30 96 09 bc
       -0.15665314 -0.018624745 -0.03788366 -0.008397624
000330 41 8a 35 3e 91 3b cd 3d 83 b8 f8 bd cc 7c ee bc
       0.17728521 0.10021127 -0.12144568 -0.029112242
000340 a4 09 75 bd 09 b6 1a be 08 43 26 be 7e dd 31 3e
       -0.059823647 -0.15108503 -0.16236508 0.17369649
000350 93 94 a4 3d 01 04 01 3e 8d df 00 3e c7 85 0a be
       0.08036151 0.12599184 0.12585278 -0.13527595
000360 38 c0 ad 3c 7b e9 33 3e 21 7c e7 bd 8c 39 2f 3e
       0.021209821 0.17569534 -0.113029726 0.17111796
000370 be 02 a7 3d ce af fb 3d e5 af 9b bd ea 27 c0 3d
       0.0815482 0.122893915 -0.076019086 0.09382613
000380 31 88 27 be 8d e3 02 bc a1 2b 71 3d c1 c0 c5 3d
       -0.16360547 -0.007988823 0.0588795 0.096559055
000390 51 93 1c 3e c6 e6 2a 3e 9f ce 1f 3e d8 88 f2 3d
       0.15290572 0.16689596 0.15606163 0.11842507
0003a0 63 eb fd 3d 43 65 0b bd 09 2b 0f be 92 1d 4e bd
       0.12398412 -0.034032118 -0.1398126 -0.05032117
0003b0 68 f1 43 3c 9b f8 0f be c0 71 32 3d 33 24 ca 3d
       0.011959411 -0.14059679 0.04356551 0.09870186
0003c0 2a 86 11 3d 6d 1e 86 3d 7d f7 14 3e 04 70 01 3d
       0.03552834 0.06548772 0.14547534 0.031600967
0003d0 67 e0 25 be 49 d4 e7 bd 49 4c 8e 3d e6 30 0c 3d
       -0.16198884 -0.11319787 0.06948144 0.03422632
0003e0 27 ff a1 3d a2 a8 4d be a5 a6 1b be 85 ca e9 3d
       0.079099946 -0.2008386 -0.15200289 0.11415581
0003f0 c6 6e 1f 3e d6 55 29 be 64 71 82 3d 15 66 09 be
       0.155696 -0.1653665 0.06369284 -0.13417847

hist_enc.out_proj.bias f4 [32]
000000 7a ae 2c ba 1a 46 00 3c 0b eb ae 3a 6d 75 59 bb
       -0.00065872783 0.0078292135 0.0013345195 -0.0033181563
000010 ff 95 93 3b 59 71 00 3c 90 fe 3a bc d5 91 1f 3b
       0.004503965 0.007839524 -0.0114132315 0.0024348397
000020 50 be 29 3b 64 f3 0f 3c 2b 87 de 38 ea c8 59 bb
       0.0025900789 0.008786056 0.00010610962 -0.0033231326
000030 c2 20 1c 3c d6 93 28 bc a8 5d 88 3b 47 48 2d 3c
       0.009529294 -0.010289153 0.0041615553 0.010576314
000040 54 c5 2a 3b a0 dd 10 3b d6 63 b3 3b 6b 1a c6 bb
       0.0026057558 0.0022104755 0.005474548 -0.0060456297
000050 5c 4a 36 ba 6e 8c f1 3b 2e fa 3f ba 5e 05 ac bb
       -0.00069538294 0.007371477 -0.00073233515 -0.0052496633
000060 89 ea 96 3b 9b 0a d9 3b b4 75 43 bb 29 3b 27 3b
       0.0046055955 0.0066235787 -0.0029824795 0.002551744
000070 0a c3 0e bc dd 32 10 bb e3 36 1d bb 39 fd 72 3b
       -0.008713493 -0.0022002973 -0.0023989014 0.0037077202

att_emb.0.weight f4 [64, 32]
000000 47 2b 15 3e 55 94 4e 3d d6 55 a2 3d 34 63 a5 bd
       0.1456729 0.05043443 0.07926528 -0.08075562
000010 7e 01 20 be bc 47 6b bd 88 3b f9 3a e0 08 b5 bd
       -0.15625569 -0.057441458 0.0019014934 -0.088395834
000020 72 7a 15 3e 89 bb 0b be 50 74 11 be a2 66 87 bd
       0.1459749 -0.13645758 -0.14204526 -0.066113725
000030 17 71 1c 3e a7 05 ea bd 06 07 0e 3e 05 c2 b7 3d
       0.15277515 -0.11426859 0.13869867 0.08972553
000040 6b 13 a1 bc 96 56 c8 3d 04 89 9a 3d 0a 97 91 bd
       -0.01966258 0.0978214 0.07545665 -0.071088865
000050 2e bb 22 bd ec 9f 31 3e 11 5e e1 3d ef b4 f2 bd
       -0.03972929 0.17346162 0.1100427 -0.118509166
000060 c8 1c 57 bd a9 11 b1 3d 88 69 b7 3d 27 f2 11 3d
       -0.052517682 0.086459465 0.08955675 0.035631325
000070 63 12 f7 bd 01 fe dd bd e6 37 92 bd 46 95 9e 3d
       -0.12064054 -0.10839463 -0.07139568 0.077433154
000080 83 ed 07 3c 5b f2 15 be 74 07 1c bd 03 a3 25 3e
       0.008296373 -0.14643233 -0.038093045 0.16175465
000090 23 c4 0d be 8a 26 08 be b4 a4 b9 3d 4c 3c 3c 3e
       -0.13844351 -0.13295951 0.09064618 0.18382376
0000a0 45 96 1a be eb 03 34 be b3 60 55 bd eb d8 46 3e
       -0.15096386 -0.1757962 -0.052094173 0.19418685
0000b0 96 5a a3 bd 52 4a c7 3c d7 65 32 3e c1 38 79 bd
       -0.07976262 0.02432743 0.17421661 -0.06084514
0000c0 c6 34 14 bd 3e 3f f4 bd ed 28 e4 3c 33 61 2a 3e
       -0.03618314 -0.11926125 0.027851546 0.16638641
0000d0 ce db 83 3d 49 63 fb 3d ea 4f a2 bc bb 03 28 3b
       0.06438409 0.122747965 -0.019813497 0.002563699
0000e0 58 ad 73 3c 79 e3 d7 3d 98 ba 07 3c 0d 19 30 be
       0.014872871 0.10541434 0.0082842335 -0.17197056
0000f0 f8 8c 42 bd e7 5e 58 3d 4c e8 67 3e 2f 54 32 bd
       -0.04749772 0.05282488 0.22647208 -0.043537315
000100 ed a8 1a be 78 01 1e be a9 59 0f be 9e 2e 97 3d
       -0.15103503 -0.15430248 -0.13999046 0.073819384
000110 67 71 3a 3e 10 d2 45 3d 9c 0b eb 3c d5 0d ea 3d
       0.18207322 0.048296034 0.02869206 0.114284195
000120 bd 6f fc 3d 51 1a a1 3d bb db d9 3d 75 92 f5 3c
       0.12326 0.078663476 0.106376134 0.029977063
000130 95 f4 c5 3d 22 4a e2 bd 50 81 e2 bd 11 f7 29 3d
       0.09665791 -0.11049296 -0.11059821 0.041495387
000140 79 b9 fa 3c cf 66 1e be 05 8b 00 be ce ce 0e be
       0.030606018 -0.15468906 -0.12553032 -0.13946077
000150 63 aa 33 3e 31 92 05 3e 1e 74 b6 bd 30 9c bd 3c
       0.17545466 0.13044049 -0.08908866 0.023145765
000160 5b fc 5a bd 2d e1 22 3e 39 34 25 be 8d 6e fc bd
       -0.05346332 0.1590621 -0.16133203 -0.123257734
000170 ea e2 1c be fb 20 ca 3d 19 06 b0 bd d3 7c cb 3d
       -0.15320936 0.09869572 -0.08594913 0.09935918
000180 7c dc 86 3d 17 29 8a bd 4f 77 4b bd cb 1f b5 bd
       0.06585023 -0.067461185 -0.04967433 -0.08843955
000190 fb e3 95 3d 4c 47 71 bd 89 d9 bc 3d 3d 24 b3 3c
       0.073188744 -0.058905885 0.09221179 0.021867866
0001a0 6d aa 10 be 4f 9d 94 bd 52 00 f6 bd db fc de 3d
       -0.14127512 -0.07256567 -0.1201178 0.10888072
0001b0 eb 92 01 3d 83 d0 b2 3b 00 6e c1 bd 48 9d 32 be
       0.031634253 0.0054569854 -0.09444809 -0.1744281
0001c0 f5 65 6a bd 4a 7e 0c be 5a ae 33 be 1b b3 31 be
       -0.05722614 -0.1372005 -0.17546979 -0.1735348
0001d0 5f 18 0a be a8 9c 3f be e4 96 53 3d 8e 9a 9d 3d
       -0.1348586 -0.18712103 0.051657572 0.076954946
0001e0 d9 38 bf 3d 99 d6 3c be f6 b1 f1 3d 1a 7c b9 3c
       0.09337015 -0.18441238 0.118015215 0.022642184
0001f0 53 b3 c4 3d e3 2c 29 bd 9c 1d ad 3d b3 37 1c be
       0.09604516 -0.041302573 0.08452913 -0.15255623
000200 70 05 98 3d d0 c1 18 3e 51 cc a4 3d 6d ba 16 be
       0.07422912 0.14917684 0.08046783 -0.14719553
000210 1f 09 6f bd a4 24 14 bd a8 a5 c1 3c a0 bd 36 bd
       -0.058358308 -0.036167756 0.023638561 -0.044614434
000220 4a 71 c2 3c 14 29 d1 bd c7 be 17 bd 57 f5 06 b9
       0.023735661 -0.10212913 -0.037047174 -0.00012870632
000230 17 ab 9f bd 82 0c 00 be 7a 21 3c 3e 27 ba 25 3e
       -0.07796305 -0.12504771 0.18372145 0.16184293
000240 73 18 8b 3c af c9 15 3e b7 6d 0a 3e 26 f1 c8 bd
       0.016979432 0.14627717 0.13518415 -0.098116204
000250 fe 01 ac bd f9 35 00 be fb 99 8a 3d 04 3f 18 3d
       -0.083988175 -0.12520589 0.06767651 0.03716947
000260 2b 46 2f bc 5f e9 fd 3d f8 59 1a bd 35 65 c0 bd
       -0.010697882 0.12398028 -0.037683457 -0.09394304
000270 9d 62 cd bd 51 ee a9 bd 73 30 53 3e 8c 4d bf bd
       -0.100285746 -0.08297408 0.2062395 -0.09340963
000280 5a 66 0e bd 75 fc a7 3d 22 ae 00 be 2a 55 c7 bd
       -0.03476558 0.08202449 -0.12566426 -0.09733041
000290 db e9 05 3e 16 7a 93 bd ba f5 ef bd 26 65 74 bc
       0.1307749 -0.072010204 -0.117167905 -0.014916694
0002a0 b6 3b 8d bc 20 4a 0d 3c 23 d4 8b 3d 07 c5 e9 bd
       -0.017240386 0.00862363 0.06827571 -0.11414533
0002b0 23 cd 33 3e 2f cf 20 be 38 0b b2 3d 6a 05 5e bd
       0.17558722 -0.15704034 0.08693546 -0.054204382
0002c0 af d1 66 bd 79 d1 1f 3e f0 ae 23 be 96 cb 50 3c
       -0.056352314 0.15607251 -0.15984702 0.012743851
0002d0 9e 1d d9 3d b5 56 1d 3e 60 f2 2c be b5 a7 3c 3d
       0.10601352 0.15365107 -0.16889334 0.046058375
0002e0 d8 b1 52 3e 7a 2c 31 be 7d c1 f4 3d 49 3c 07 be
       0.20575655 -0.17302123 0.119509675 -0.1320659
0002f0 34 5c 02 3d 82 ef 28 be 87 7b e0 3d 28 7c 94 bc
       0.031826213 -0.16497615 0.10961061 -0.018125609
000300 bd f7 da 3d 20 a5 87 bb 8d 43 2d 3b 0d 0e 1b 3d
       0.106917836 -0.0041395575 0.0026437968 0.037855197
000310 90 9d 21 be e2 c4 f3 bd df 3a e4 bc 4f cc fd bd
       -0.15782762 -0.11902787 -0.027860103 -0.123924844
000320 11 7e 21 3e 8d 1d 19 be 9e 1e 70 bd 74 34 2f bd
       0.15770747 -0.14952679 -0.05862295 -0.042774633
000330 9c 90 09 be bc 72 e0 bb d2 38 b3 bd 04 11 1e be
       -0.1343407 -0.006849615 -0.08751072 -0.15436178
000340 b4 8f 56 ba 41 44 1a 3e fe 61 1b 3d 94 76 1b 3e
       -0.00081848656 0.150651 0.03793525 0.15181953
000350 e7 49 e5 3c 5d b7 50 bd dc 1b 2c 3e bf 8e ac bd
       0.027989341 -0.05095612 0.16807503 -0.08425664
000360 57 41 3c be e2 7e 45 3d 76 61 6d 3d 87 4e a8 bd
       -0.183843 0.048216708 0.057954274 -0.08218103
000370 a4 94 70 3d 5d 1e 8c bd 14 f0 1d bc d4 b6 b7 bd
       0.058735505 -0.06841729 -0.009639759 -0.089704186
000380 eb a7 92 bc 63 ce ec bd 66 81 2f 3d d8 92 a0 bc
       -0.017902335 -0.11562803 0.042848013 -0.01960127
000390 eb e9 dd 3d 03 78 77 3c 66 48 24 be 77 51 e4 bd
       0.10835632 0.015104297 -0.16043243 -0.11148351
0003a0 a2 e0 db bd 93 db b5 3d 73 75 06 be 37 ce ee bd
       -0.10736205 0.08879771 -0.13130741 -0.11660426
0003b0 94 a8 f0 3c c2 32 18 be c1 09 d8 bd 6e 2f 34 3e
       0.02937726 -0.14863113 -0.105487354 0.17596218
0003c0 9d d7 a9 bd f2 e8 97 bd 30 53 e7 3d 99 38 8b 3d
       -0.08293078 -0.07417478 0.11295164 0.067979045
0003d0 ee d8 06 3e b7 42 1d be a8 88 b7 3d 7c 04 22 bd
       0.1316869 -0.15357481 0.08961612 -0.039555058
0003e0 8b 3a f1 bd ba c4 ce bd 2b d8 51 be 3f 0d 07 3e
       -0.11778744 -0.10096116 -0.20492618 0.13188647
0003f0 ff 83 f9 bc 20 d6 30 be cc d2 2c 3e 6b 35 b4 3d
       -0.030458448 -0.17269182 0.16877288 0.08799251

att_emb.0.bias f4 [64]
000000 10 e8 4c 3d f0 04 d2 3d 27 a2 ce bd 0f b0 04 be
       0.050026 0.10254848 -0.10089522 -0.12957786
000010 e4 ff b7 bd c0 d7 0f be bf b6 57 bc a3 b3 04 be
       -0.08984354 -0.14047146 -0.013166129 -0.12959151
000020 58 02 ad ba b4 61 46 bc ad 71 06 be 4c d4 b2 bd
       -0.0013199551 -0.012108255 -0.13129301 -0.08731899
000030 80 ba 9c 3d eb 15 36 bd c2 4b 1f be 36 70 19 3e
       0.076527596 -0.044454496 -0.15556243 0.14984211
000040 68 a6 62 bd 24 27 c6 3c 12 a0 0b 3e bd 92 ad 3d
       -0.05533448 0.024188586 0.1363528 0.08475254
000050 ca c9 15 be a4 91 19 3e f2 3f 5e bd fb 7e 3e 3d
       -0.14627758 0.14996964 -0.0542602 0.046507817
000060 66 7d 9f 3d fa d0 9a 3d f9 7f 0e 3e 15 6e 91 bd
       0.0778759 0.0755939 0.13916005 -0.071010746
000070 48 5a ff 3d c7 39 f8 3d 74 96 29 be 15 be 7e bd
       0.12468392 0.12120395 -0.165613 -0.062192995
000080 c4 0d 25 3e be 3e 00 be 2d c4 23 be e7 38 d5 3d
       0.16118532 -0.12523934 -0.15992804 0.10411244
000090 22 7b 6d 3d 67 52 e7 3c e7 8d 0f 3e b1 79 60 3c
       0.057978757 0.028237535 0.14018975 0.0137008885
0000a0 8d 01 2d 3e e1 4f 03 be 60 b9 14 be 37 b2 0c bd
       0.16895123 -0.1282344 -0.1452384 -0.034349646
0000b0 01 ce 29 3e 00 77 23 be fc 40 9e 3d 20 e1 39 3d
       0.1658249 -0.15963364 0.077272385 0.04538071
0000c0 3e 6d 89 bd f3 4c 1b be 97 8f a3 3d 5e 2a 93 3d
       -0.067102894 -0.15166073 0.07986372 0.07185815
0000d0 a1 06 0f bc 10 3a 89 3d 3d 58 b5 3d 1d 17 07 be
       -0.008729608 0.06700528 0.08854721 -0.13192411
0000e0 47 c3 18 be c5 13 c6 bc 4b 89 f6 bc 68 12 9f bd
       -0.14918242 -0.024179349 -0.030094763 -0.077671826
0000f0 2b 79 7f 3d 51 86 10 be 9a 10 24 3e ca db 51 bd
       0.062371414 -0.14113738 0.16021958 -0.051234998

att_emb.1.weight f4 [64]
000000 24 33 82 3f 4f c0 86 3f 2d 73 88 3f fa cf 82 3f
       1.0171857 1.0527438 1.0660149 1.021972
000010 e2 43 88 3f 93 d9 87 3f 6b d4 86 3f fd 2a 7f 3f
       1.0645716 1.0613273 1.0533575 0.9967497
000020 b2 48 82 3f 50 0a 85 3f a0 70 86 3f a1 85 82 3f
       1.0178435 1.0393772 1.050312 1.019703
000030 aa ef 83 3f 57 ab 83 3f 46 53 83 3f 2d c6 81 3f
       1.0307515 1.0286664 1.0259788 1.0138603
000040 f9 26 84 3f 64 1c 80 3f df 8d 83 3f ef 31 83 3f
       1.0324394 1.0008664 1.0277671 1.0249614
000050 60 49 82 3f 12 04 80 3f ad be 81 3f e2 92 81 3f
       1.0178642 1.0001242 1.0136315 1.012295
000060 fe 4d 87 3f ad 94 80 3f 5c 8e 80 3f 5c 1d 86 3f
       1.0570676 1.0045372 1.0043445 1.047771
000070 c0 04 83 3f 38 c6 7c 3f 69 f2 82 3f 79 d9 7f 3f
       1.0235825 0.9873996 1.0230228 0.9994121
000080 5e b9 79 3f 23 92 86 3f 52 5e 84 3f d9 21 88 3f
       0.9754847 1.0513347 1.0341284 1.063533
000090 65 e6 84 3f eb 2c 81 3f f0 1f 86 3f 0b 66 7f 3f
       1.0382811 1.0091833 1.0478497 0.9976508
0000a0 28 a9 84 3f 7f 3b 85 3f 7c 33 81 3f 7a 60 87 3f
       1.0364122 1.0408782 1.0093837 1.0576317
0000b0 35 0a 87 3f 95 76 83 3f fa 26 88 3f 0c c2 82 3f
       1.054999 1.0270563 1.0636895 1.0215468
0000c0 15 80 83 3f 51 76 89 3f e5 4a 83 3f 04 2b 87 3f
       1.0273463 1.0739232 1.0257231 1.0560002
0000d0 61 e0 86 3f ac f6 81 3f 2f 21 82 3f c7 d9 83 3f
       1.0537225 1.0153403 1.0166377 1.0300835
0000e0 1a f4 8a 3f 7a 2a 84 3f 8a 15 88 3f f5 5a 81 3f
       1.0855744 1.0325463 1.0631573 1.0105883
0000f0 10 7e 81 3f 07 96 84 3f ac 7a 86 3f 9a aa 84 3f
       1.0116596 1.0358285 1.0506186 1.0364563
