gp_model_.pth (torch, 350266 bytes, 52 tensors)

hist_emb.0.weight f4 [32, 6]
00000000: 6be3 b9bc 8f1f 333e 7e89 a2be 2aa5 97be
00000010: 6ac9 30be d985 36bc 4f21 e5bb 6909 a83e
00000020: 65ab 97bd 0a8c 063e 1718 a6be 47c7 dcbe
00000030: 3842 cfbe e0b5 96be a4f1 25be c9cb 16bd
00000040: bda0 3f3e 2d4e 113f 6765 76be a0b6 14be
00000050: eb87 0b3e 46ff b13e cc67 bd3c 4f8a bf3e
00000060: cea5 76bd b643 943c 90fc c93e 0189 c6be
00000070: 204f 74be 8b1d 9dbe ec79 29be 5dea ab3e
00000080: 8f0a 89be 2837 4abe 8159 a4be 6da9 23bf
00000090: d2dc 5ebe 1d61 c23e f4b1 023e 0766 803e
000000a0: 8912 0d3e 3bc0 55bd 53ad 273d 04d4 c3be
000000b0: 968b a2be 2c81 51be 8b54 a33e af1f d73d
000000c0: ac35 24be dd6b 69b9 02a7 943e e41d d03e
000000d0: cb8b 9c3e 6372 7a3e f1bd 843e 8a6f 85be
000000e0: 43ca a93d 539a 8fbe 13a3 cabe 0555 33be
000000f0: 39b7 3e3e 6e1b 263e 6a74 5ebe 1491 043e
00000100: c3d5 443e 1748 d0be eb6c e23c e798 dc3d
00000110: 75e0 8b3e 64f2 d03e d396 a2be 183a ffbc
00000120: 3751 333e 5723 bb3e da14 cb3e 0713 bf3e
00000130: 3612 2d3e c588 12bf da14 d03c 1067 75be
00000140: 8ba7 babe 6827 973e c6c4 e83e a880 77be
00000150: a053 b43d 398c 91bd 4116 4abd 9eaa 42be
00000160: 5d47 943e 2f26 08bf 456c 083e f9d5 323e
00000170: 944d a73e c5c8 2d3e c569 85be 9e9c 19be
00000180: fbb4 3d3e be03 b63d cfa1 a5be c82a 78be
00000190: 758e fd3e 271e 00bd ec57 30be 2ed1 cdbd
000001a0: d613 b3be 500a a6bc e516 d9be d070 00bf
000001b0: f4cd 47bd 1724 c53d 4dd4 19be 4528 6e3e
000001c0: 36b0 c9be f402 313f 123d 9b3e 09c6 a2be
000001d0: 303d bbbd 1d64 223d 96d5 c2bd ddf5 c13e
000001e0: 80b8 cb3d f7ea 203d a792 3bbe 8ece 473e
000001f0: 814c 0abf 7067 45bd 30e3 bbbd 9873 57be
00000200: fced 03be 5c1a 8fbe 191f 033e b2c1 813e
00000210: ee2c 65be bf94 81bc 91bb ab3e 7153 17bd
00000220: 8882 e53d 4a9e 24be 8163 fb3d 0c53 8f3e
00000230: 3005 c63e ecae 8c3e cabe 173f 13f4 ec3d
00000240: 53fb a0be 5f09 2ebe 2394 8d3e 5f5f a2bc
00000250: df48 1dbb a5dc fbbe 1da4 c3be 51a1 bdbe
00000260: 02bd a4bd 34cd 803e f278 d73e 4883 9abe
00000270: 30d7 803e 522e b1be bbd8 8abc 391b 4cbe
00000280: 429b 513d c541 99bd 0509 b8be 8ef9 b1be
00000290: dd64 c0bd 0bf4 c2b7 be9e b3be f4a3 9c3e
000002a0: d0bc abbe 4bf1 9fbc 4be4 c23e a05c 4fbe
000002b0: 1de5 043f e4c3 713d 8e5c a6be 976d 793e
000002c0: bfb2 f8bc d7a7 55be 5598 0d3f 3641 07bf
000002d0: afee 423d 7164 a7bd 1712 7d3e 3849 bd3d
000002e0: 44b9 723e 024a d23e 1923 bfbd 8276 b6bd
000002f0: 18ef 95be 6293 583e d62e 053f e7cc 093f
-0.02269145 0.17492507 -0.31745523 -0.29618198 -0.17264333 -0.01114031 -0.006992496 0.3281968
-0.07405738 0.13139358 -0.32440254 -0.43120787 -0.40480208 -0.29435635 -0.1620546 -0.03681544
0.1871366 0.5675991 -0.2406212 -0.14522791 0.13626067 0.3476507 0.023120783 0.3741021
-0.060216717 0.018098693 0.39450502 -0.387764 -0.23858309 -0.30686602 -0.16550416 0.33577242
-0.26765868 -0.19747603 -0.32099536 -0.639304 -0.21763924 0.37964717 0.12763196 0.2507784
0.13776602 -0.05218528 0.04093678 -0.38247693 -0.3174712 -0.20459431 0.3190044 0.1050409
-0.16036099 -0.00022260794 0.29033667 0.40647805 0.30575404 0.24457698 0.25926164 -0.2606166
0.082905315 -0.28047428 -0.3957754 -0.17512901 0.18624581 0.16221401 -0.21724096 0.12945968
0.19222169 -0.4068 0.027639827 0.10771351 0.27319685 0.4080993 -0.31755695 -0.031155631
0.1751145 0.365504 0.39664346 0.37319204 0.16901478 -0.57239944 0.025400568 -0.23965096
-0.3645595 0.29522252 0.45462626 -0.24170172 0.08805013 -0.071068235 -0.04933763 -0.19010398
0.28960696 -0.53183264 0.13322552 0.17464437 0.32676375 0.16971119 -0.26057258 -0.15001151
0.1852607 0.088874325 -0.32350013 -0.2423507 0.4952275 -0.031278756 -0.1722104 -0.100496635
-0.3497607 -0.02026859 -0.4240028 -0.5017214 -0.048780397 0.09626024 -0.15022393 0.23257549
-0.3939225 0.6914513 0.3032003 -0.31791714 -0.0914253 0.039646257 -0.095133945 0.3788289
0.099473 0.03928658 -0.18317662 0.19512388 -0.54022986 -0.04819435 -0.09174192 -0.2104019
-0.12883753 -0.27949798 0.12804832 0.2534309 -0.2238042 -0.015817998 0.3354154 -0.03694481
0.112065375 -0.16076007 0.12274838 0.27993047 0.38675833 0.27477205 0.59275496 0.11569991
-0.31441745 -0.16995762 0.27652082 -0.019820867 -0.0023999733 -0.49191776 -0.38211146 -0.37037137
-0.08043863 0.25156558 0.4208446 -0.30178285 0.25164175 -0.34605652 -0.016949048 -0.1993226
0.051173456 -0.07483248 -0.3594438 -0.34760708 -0.09394238 -2.3240244e-05 -0.35082048 0.30593836
-0.3354249 -0.019524237 0.380648 -0.20250177 0.519121 0.059024706 -0.3249249 0.24358211
-0.03035867 -0.20864807 0.55310565 -0.5283388 0.047590908 -0.081734546 0.24713932 0.09242481
0.23703486 0.41072088 -0.09332866 -0.08909322 -0.29283977 0.21149972 0.5202459 0.5382828

hist_emb.0.bias f4 [32]
00000000: 6065 a5be 1bbe 45bd eac5 69be 57a5 7ebe
00000010: 9d57 7cbe 91bc 123e 2538 87be 4135 113d
00000020: e8e2 1e3d 60f4 813e 93ac abbe fdad a8be
00000030: 3234 94be 9bfb 9f3e a88a 2cbe a446 ac3e
00000040: f83f cf3d ad5d a03d 7ea1 663c 4ff9 c0bd
00000050: 480f 5c3d e5d1 b6bd 332c 9fbc df4a 6fb8
00000060: d633 b0be ae26 41be 47c5 b23e 6fd6 a9be
00000070: 6b3c 2ebd 01ec d23e bc94 363e 31f1 6c3d
-0.32303905 -0.048277 -0.22829404 -0.2486776 -0.24642797 0.14329745 -0.26410022 0.035451178
0.038790613 0.25381756 -0.335301 -0.32945243 -0.28946072 0.31246647 -0.16849768 0.33647645
0.10119623 0.07830367 0.014076589 -0.09422552 0.05372551 -0.08926753 -0.019430256 -5.705177e-05
-0.34414548 -0.18862411 0.34916136 -0.33171412 -0.042538088 0.41195682 0.17830175 0.057847206

hist_enc.weight_ih_l0 f4 [256, 32]
00000000: e856 3bbd 8b6d d23d 34cf f9bd 9f44 abbd
00000010: 722e 23bc 5068 233d 65bc 163c 53bd 983d
00000020: 64f3 38bd 173c 093e 79fd d93d ceed d8bd
00000030: f96d a53d 1e7f 09be f76d a03c f3f0 6c3d
00000040: 12e7 b03d 3cdf aa3d e908 f0bd 7d78 71bc
00000050: 3b7b 953d c6af 0ebe afad 913d 66e0 b6bd
00000060: 1422 a1bc ea30 6cbd 206c 89bd 571f 82bc
00000070: 4fe1 b33d 6526 c6bc c065 1dbe 3303 debd
00000080: b399 ccbd 261f 8d3d cbc6 85bd 26fd babd
00000090: 3464 8ebd 5291 b03d c469 9c3d d2dd ad3d
000000a0: 16c3 183d 1548 4bbd 8e7b b6bc e2bb 313d
000000b0: 1ea3 e83d 92f4 a23c df71 3abd 0071 6abd
000000c0: 6c18 dabd 8ae9 8b3c eb5c 9fbd 6236 e9bd
000000d0: fe8c d73d a4b9 b5bd a5a0 9dbc e6d5 463d
000000e0: 8a7f 2bbb 84ca bbbd 0a08 e1bd 055e ba3d
000000f0: b12e 9c3c c23e da3d 7883 73bd 68fa 133d
00000100: eab9 353d 26de 1b3d e490 fbbd be0a b4bc
00000110: 9f72 0e3d 564d 403d 931e d7bc cd7a d0bd
00000120: 27f9 0e3d 08f7 9fbd c06d a63d 0f65 a5bd
00000130: 094d 44bd 2c47 42bc 51a7 09bd b1fd 5b3d
00000140: cb3e a43d 8ded edbd 66f9 a53b c1c9 453d
00000150: b676 833d bc59 1abd 314d 04be 1d0b 093b
00000160: d200 7e3a eea3 d8bd 32a6 4a3d 4e3d ee3c
00000170: 5dea aebd b5c8 dd3b 2d82 4abb 3204 e6bc
00000180: ea0f 6c3d 7325 573d 268f 26be 8193 43bd
00000190: 2dd3 9a3d 463a 113e fa7d 8e3d 93a5 6dbc
000001a0: bb5f 603c 8f64 26bd d80f 65bd 2277 b7bd
000001b0: 9cad 223e 4540 3f3d 5ea9 7bbd 7800 c03d
000001c0: 0118 133e a459 8f3d f9fa 0b3e a11e d73d
000001d0: 10d8 21bb 2508 b0bd 9e60 8c3d 2884 dd3d
000001e0: b940 f9bd 71a0 183d 975a 8d3d 1cb7 a53b
000001f0: 583d e0bd 459a 8e3c 1dbe 70bd 7319 6f3d
00000200: 402c 8cbd 92f9 1bbc 8713 c93d b363 123e
00000210: a423 ebbd 6d9f 24bd 9565 a1bd 8a9a 7f3d
00000220: c89b a3bc 5bce 4abe f826 00be b1ac 263e
00000230: 199f 1c3d 524f 383e a780 513d 9a43 31be
00000240: 8326 0abe 97e0 c1bc 4b7c 133e 02de e33d
00000250: 01f6 f2bd 7df8 32bd 0704 c6bd e257 39bd
00000260: 1e89 0f3e 8ff3 323e efaa 953d f747 233e
00000270: 9885 0d3e 4920 76bd f71a cf3d 464c 873e
00000280: cdd1 733d 372d 193e 3d9f 293d 590a 663d
00000290: d61c fabb 1700 653d 4b4f 4c3d 8507 8cbd
000002a0: 2922 a8bd c306 babd a6d2 9ebd fba7 ea3d
000002b0: c356 fe3d 2cc0 71bd ca21 89bd 8bf3 013e
000002c0: 6b37 cd3d 989b 0dbd d905 d3bd 8d11 bd3d
000002d0: 4a2f 1d3d c37b ffbd eb50 f53d f6c0 0e3e
000002e0: dfb6 81bd 3f1e 373d bdcc d3bd 90f9 39bd
000002f0: 1aa7 e43d fa84 5d3c 73d0 95bd 6256 9abd
00000300: c737 08bd 3121 0fbd bbc9 06bd a231 883d
00000310: 98fd a93c 968f afbd 2e12 41bc 360f 8e3d
00000320: cd56 803c 444e 99bd 06a1 a93b 2a33 fcbd
00000330: 1c87 7abd 9e28 243d 438c b7bc 9fbe 663d
00000340: 4dc1 153e c48a 04bc 626a 24be 37cf 0dbd
00000350: 4c80 9c3c 0f75 d6bd 3e9c 4e3d e900 d8bd
00000360: 0c53 0dbe ed3d 20be 45d5 0cbb 28ff 373d
00000370: b719 00be 7e6f d33d a8c3 2dbd 9013 3b3c
00000380: e3ae bdbc 7e08 13be 415c 0f3e 8735 c23d
00000390: 1039 d43d 3635 e83c 96ba dabd 6daf 0a3e
000003a0: ea97 a43b 06d6 a03d 38a3 cbbd c5cb 26bd
000003b0: d1d2 17be 55fc 87bc 8994 833d c2f7 13be
000003c0: 0d9e f83c ee36 cd3d 32e3 8ebb a825 57bd
000003d0: b805 b6bd 7416 fabb 7864 273d ec91 bc3d
000003e0: 7e58 ba3d a19d dd3c f9d7 883d 86f3 aabd
000003f0: e2ac f7bd 9ef6 ca3c 3e92 47bd 3d08 b93d
-0.045737177 0.102748 -0.12197724 -0.08362698 -0.009959804 0.039894402 0.00920019 0.07457986
-0.04515399 0.13401829 0.10644049 -0.10592233 0.08077616 -0.13427398 0.019583685 0.057846975
0.08637823 0.0834336 -0.117204495 -0.014738199 0.07298895 -0.1393424 0.07113206 -0.08929519
-0.01966957 -0.057663836 -0.06710076 -0.015884085 0.087832086 -0.02418823 -0.15370846 -0.10840454
-0.09990253 0.06890707 -0.065320574 -0.091303155 -0.06952706 0.08621468 0.07637361 0.084895745
0.037295423 -0.04962929 -0.022275712 0.04339207 0.11359237 0.01989201 -0.045518752 -0.05723667
-0.10649189 0.017079134 -0.077813946 -0.11387326 0.10524939 -0.08873299 -0.01924164 0.048543833
-0.0026168549 -0.09169486 -0.109878615 0.09099964 0.019065233 0.10656501 -0.05945155 0.036127478
0.044366755 0.038053654 -0.12283495 -0.021977779 0.03477728 0.046948753 -0.026259696 -0.101796724
0.03490558 -0.07810789 0.08126402 -0.08075916 -0.04792503 -0.011857789 -0.03360683 0.053708736
0.08019789 -0.11617575 0.005065131 0.04828811 0.06419127 -0.037683234 -0.12920071 0.0020911165
0.0009689453 -0.10578142 0.049474902 0.029081967 -0.08540795 0.006768311 -0.0030900345 -0.028078172
0.057632364 0.05252595 -0.16265544 -0.047748093 0.0755981 0.14182386 0.06957622 -0.014504808
0.013694699 -0.040623244 -0.055923313 -0.0895827 0.15886539 0.04669215 -0.061440818 0.093750894
0.14364626 0.069995195 0.13669957 0.10503889 -0.0024695434 -0.085953034 0.06854366 0.108162224
-0.12170548 0.037262384 0.06902044 0.0050572287 -0.109492004 0.017407546 -0.058775056 0.05837388
-0.068443775 -0.009519951 0.09818178 0.14295845 -0.11481407 -0.040191103 -0.07880703 0.06240324
-0.019971743 -0.19805281 -0.12514865 0.16276814 0.038237665 0.17999008 0.051148083 -0.17310944
-0.13491254 -0.023666663 0.14402883 0.11126329 -0.11863328 -0.04369401 -0.09668737 -0.045249827
0.1401715 0.17475723 0.073079936 0.15945421 0.13820493 -0.060089383 0.10112565 0.2642538
0.059526253 0.14958654 0.041411627 0.056162212 -0.007632832 0.05590829 0.049880307 -0.06837372
-0.082096405 -0.09083321 -0.07755022 0.11457821 0.12418892 -0.05902116 -0.06695898 0.1269056
0.10020336 -0.034572214 -0.1030385 0.09231863 0.038375176 -0.124747775 0.119783245 0.13940796
-0.06333708 0.04470658 -0.10341785 -0.045404017 0.111646846 0.013520474 -0.07315149 -0.075360075
-0.03325632 -0.034943763 -0.03290723 0.06650092 0.020750806 -0.08572309 -0.0117841195 0.06936495
0.01566639 -0.07485631 0.005176666 -0.12314446 -0.061164007 0.040077798 -0.02240575 0.056334134
0.1462452 -0.008089725 -0.16056207 -0.034621444 0.019104145 -0.10471546 0.050441973 -0.105470486
-0.13801211 -0.15648623 -0.0021489423 0.04492107 -0.1250981 0.10324 -0.04242292 0.011418238
-0.023154682 -0.14358708 0.14000036 0.09482866 0.10362446 0.028345685 -0.1068012 0.13543482
0.0050229924 0.07853322 -0.09943241 -0.040721674 -0.14826514 -0.016599813 0.06424815 -0.14449981
0.030348802 0.10020243 -0.00436058 -0.052526146 -0.088878095 -0.007632071 0.0408673 0.0920752
0.0909891 0.027052702 0.066818185 -0.0834723 -0.12093522 0.0247758 -0.04872345 0.090347745

hist_enc.weight_hh_l0 f4 [256, 64]
00000000: 10da 213e 600b af3d 509b 79bd 2f89 07be
00000010: 6f60 05be 4546 a5bd f9e9 8bbb dabd 00be
00000020: 72f5 9ebd 6087 583d 6495 273c 501f 87bd
00000030: a21c e4bd 20fc 613d f259 c83c 4177 0a3d
00000040: 50ee 8fbd afda 7f3d 17f9 10be f38d babd
00000050: cd16 373e 1da4 943d ca3d 573d 6c6b 50bb
00000060: 21a6 9a3d 0be8 29be 65f5 0f3c 22a1 a9bd
00000070: e68c 99bd 910e 4d3c b068 3cbe 7f28 97bc
00000080: 4ef1 ab3d f593 483e 2810 bbbc 8ea9 c73d
00000090: 297b 79bc 69f7 0fbe b387 12be 0977 14be
000000a0: 295d 933c b81b 99bc d0e5 f8bd aa73 da3c
000000b0: d873 883d de9d 86bc f2f3 733d ddc9 a1bd
000000c0: 36e7 aabd 98ed bdbd 4452 263e 8062 5bbd
000000d0: 1b7a 0f3d 4257 ae3d 6651 973d 487a 7c3d
000000e0: 45b6 dd3c 645e 8dbc def3 d03d 3046 b9bb
000000f0: e692 683d f006 ae3d 259c da39 9074 edbd
00000100: 02c4 98bd 879d 0bbd 9def 0a3e ad70 acbd
00000110: f8e6 eb3d b424 da3d 9ef3 b539 bfd5 7b3d
00000120: 8557 c2bd 4436 a03c 11e1 4f3d 108a 94bd
00000130: de40 28bd c5fa 9ebc 0c61 ac3d 4a87 d13d
00000140: f691 ff3d b5be 09bd e4d4 a3bd 88d9 e53d
00000150: e786 77bd 8466 dabb ac84 e0bd 5181 8e3d
00000160: 9182 0ebd 6a26 05bd 2890 a13c 4372 a2bc
00000170: 2eb8 c7bc 3655 933d 55f7 08be b891 e1bc
00000180: d370 2fbd 8429 06bd ae18 333c 7fa5 173e
00000190: fdc9 6c3d a605 dd3b 7e09 bc3d 484c 023e
000001a0: ee29 753a 8475 1cbe 166b 24bc 3e06 b33d
000001b0: 04ad 513c 33c9 3abc aedc 053e 3e64 05be
000001c0: 596e e53c 6d75 e93d 8cf4 deba 96fb dc3d
000001d0: 5624 fc3d 3ff7 81bd 2aa2 b03d 36a5 6b3d
000001e0: 7360 313d 92f0 bb3c c48e 143d d6b4 723d
000001f0: 57bd 493d 4970 9dbd 2630 2ebe edc2 6a3d
00000200: b4cb 813e edb3 d1bc 6f42 aa3d 006b 5ebc
00000210: 4497 99bc 3154 36bc de60 f3ba 17e2 853c
00000220: 7705 15be 00c7 3c3d f925 893c 4b43 1a3e
00000230: 28f1 89bd b14a d0bd 0e03 d33d 2abf 173e
00000240: 315d eabd 155e 483d 2c75 863d 8e76 26be
00000250: 558e e73d 6e2e 48be f183 d3bb ac62 01be
00000260: ca00 353e 78a3 303d b385 823c d4c1 65bd
00000270: 814e 2ebd e419 a33c 0cd9 123e b0ed 323e
00000280: 69e2 fcbc 9348 7d3e 4409 43bc 4b53 87bd
00000290: ebc8 cc3d fb73 073e 162f 9bbd 00cb 173d
000002a0: 75f9 0cbe cfc5 a53d 5025 7cbe 3bc1 9f3d
000002b0: cf6e e23c 6a09 2fbe aa33 6dbe 92f9 1dbe
000002c0: 9d6c 3b3d ce6d 0bbd 4490 72bc 31ef 11ba
000002d0: 22de e73d da87 453d 38e9 1d3e dea3 52bd
000002e0: 7823 5b3d 377b 093c fda4 013e 8b6e 5d3d
000002f0: bfdf 2e3d a074 d63b d3a8 9bbb c96f 86bb
00000300: eee7 153e 73d3 54bd b050 abbc cff5 ebbd
00000310: 2c85 e23b d547 0a3d ff1b 143d 75e3 c33c
00000320: cdfb a9bc f6c1 d13d 5e5b da3c 2901 273e
00000330: b813 bb3d 451f b93d b4d6 923d 4708 6d3d
00000340: a2d4 ac3d 2a72 813c 0354 e33d 938a 64bd
00000350: 3b7e b13c 8d46 9d3c c5da bfbd 2fbe 86bd
00000360: eeb2 bf3c cd97 45bd 83ce 1abd 8072 16bd
00000370: 512e 2a3d 1422 e73d 8bb4 50bc 9206 cf3d
00000380: 6259 093d 4ea0 2c3e 5d4e b53d 9eea 0c3d
00000390: 29fb e33c 3f46 c0bd c781 1ebd d223 9dbc
000003a0: 1e83 96bd e6fa 823d 6cf4 e0bc c9e8 e13c
000003b0: 615f 6f3d b266 203c e64b b6bd ba2e da3b
000003c0: b300 cebd eb0b 17bb 5f22 9e3d 2741 d53d
000003d0: 07ff e43d b63d 53bc bb4f ca3d ea44 883d
000003e0: e924 873d 1288 213d 5a93 853d 6166 803d
000003f0: 3d23 8b3c ebac 17bd 6cc0 fabd 7cc5 ffbd
0.1580584 0.085470915 -0.060939133 -0.13235925 -0.13025068 -0.080700435 -0.004269835 -0.12572423
-0.07761659 0.05286348 0.010228489 -0.06597769 -0.11138274 0.055172086 0.024456952 0.033805136
-0.070278764 0.062464412 -0.1415752 -0.09109106 0.17879792 0.072578646 0.05254916 -0.003180231
0.07551218 -0.16592424 0.008786534 -0.08282687 -0.07497577 0.01251568 -0.1839931 -0.018451927
0.083956346 0.19587691 -0.022834852 0.09749137 -0.015227118 -0.14059223 -0.14309578 -0.14498533
0.017988758 -0.018689975 -0.12153208 0.026666481 0.066627204 -0.016432699 0.059558816 -0.078998305
-0.08344881 -0.09273833 0.1624232 -0.053560734 0.03502856 0.08512737 0.073885724 0.061640054
0.027064452 -0.017256923 0.10202764 -0.005654119 0.05678072 0.08497417 0.00041696537 -0.11594498
-0.074592605 -0.034085777 0.13567968 -0.08419929 0.11518663 0.10651532 0.0003470452 0.06148314
-0.09489349 0.019557126 0.05075175 -0.07252896 -0.041077487 -0.019406686 0.08416948 0.102308825
0.12479012 -0.033629138 -0.0799959 0.112231314 -0.060431387 -0.006665053 -0.10962805 0.06958259
-0.034792487 -0.032507338 0.01972206 -0.019829875 -0.024379816 0.07193987 -0.133756 -0.027535304
-0.042832207 -0.032754436 0.010931177 0.14809225 0.05780982 0.006745058 0.09181498 0.12724411
0.00093522563 -0.15279204 -0.010035297 0.08741425 0.012797598 -0.011400509 0.13072464 -0.1302652
0.02800672 0.1139935 -0.0017010137 0.10790174 0.12311618 -0.063459866 0.0862468 0.057530604
0.04330487 0.022941861 0.036268964 0.05925449 0.049252834 -0.07687432 -0.17010555 0.057314802
0.25350726 -0.02559849 0.083134525 -0.0135753155 -0.018748887 -0.011128471 -0.0018568297 0.01634316
-0.14552866 0.04608822 0.01674174 0.15064733 -0.0673545 -0.10170496 0.10303317 0.14819017
-0.11443556 0.04891785 0.065653175 -0.16256163 0.113064446 -0.19548962 -0.0064549376 -0.12635297
0.17676082 0.043124646 0.015932893 -0.056093052 -0.042555336 0.019909807 0.1434061 0.17473483
-0.03086968 0.24734716 -0.011904065 -0.06607684 0.099992596 0.13227837 -0.0757734 0.03705883
-0.13767035 0.080943696 -0.24623609 0.07800528 0.027640728 -0.17093435 -0.2316424 -0.15427235
0.04575788 -0.034040265 -0.014804903 -0.00055669533 0.11321665 0.04822526 0.15420997 -0.051425807
0.053500623 0.008391193 0.12660594 0.0540605 0.04269385 0.0065446645 -0.00475035 -0.0041026813
0.14639255 -0.051959466 -0.020912498 -0.11521494 0.006912848 0.03375991 0.03615951 0.02391217
-0.02074995 0.10242073 0.026654895 0.16309036 0.091346204 0.09039167 0.071698576 0.057869222
0.08438994 0.015801508 0.11100008 -0.055796217 0.021666637 0.01919868 -0.09367899 -0.065792434
0.02340075 -0.04824047 -0.0377946 -0.03673029 0.041548077 0.11285797 -0.012738357 0.10108675
0.033532508 0.16858026 0.08852837 0.034403436 0.027829723 -0.093883984 -0.038697984 -0.01918212
-0.07349227 0.06395511 -0.0274603 0.02757682 0.05844057 0.0097901095 -0.08901195 0.0066584023
-0.10058727 -0.0023047875 0.077213995 0.104128174 0.11181455 -0.012893131 0.09878489 0.06653769
0.06598837 0.039436407 0.06522246 0.06269527 0.016984576 -0.03703014 -0.12243733 -0.12488839

hist_enc.bias_ih_l0 f4 [256]
00000000: 3d48 a43d e777 df3c 5581 f2bd c931 a23d
00000010: 0ace 92bc 808c 20bd 5c61 42bd 2e71 03be
00000020: 2419 373c 434e 8a3d ef6c 89ba 8cc0 beb9
00000030: 0f3a b5bc 1555 243d e957 40bc 6bb4 a6b9
00000040: 31fa 24bd a907 1f3e c022 c0bd a63d 15bc
00000050: a41f 393d 0cc3 a9bd e0be 233d ad39 783d
00000060: b1d8 8fbd c1b5 e43d 8d48 c9bc a992 a6bc
00000070: 0686 c83b f4bf ac3d 04a8 59bd 8b2c d43c
00000080: c56f d4bc e23d 853d 09b0 9fbd f9b1 38bd
00000090: 89e0 71bd 3b20 263e 91cf 013e 43ee 453e
000000a0: 68de 13bd acd3 a33d b8c5 953d 049f 103e
000000b0: 54af 9dbd 7c68 87bc 761a ab3d 1e34 c63c
000000c0: cf13 963d 7ea3 0abe 8f9c 50bd 75b0 e7bd
000000d0: 1456 773d 8e02 e13d a031 0dbe 50a4 2e3c
000000e0: 9478 0a3d 19e9 d8bd 2dbe f13d fa17 2e3d
000000f0: 75bd c8bc d6bb de3d 5a10 03bd 76a2 683d
00000100: 3f29 863d daf0 02be bb7b 353e 78e0 60bd
00000110: 1879 c13d f476 2e3e a0bf 043e 0c9a 513d
00000120: 151d 3c3b 92df 2e3d 4590 213e bb6a c03d
00000130: d085 043e 89fc fcbc 7ea5 aabd 8e31 8b3c
00000140: 131d 583e 3ecf 423e 77f5 fd3d ed6e 933b
00000150: e063 603e 08a0 313e df98 2b3d 537a 743d
00000160: 327c 103e 7b59 72bc c41b 0d3e c567 543d
00000170: ab85 1f3e 5d50 2e3e 4418 ea3d 74f5 693e
00000180: ee1f 383c 5a24 193d dcc9 233e feb2 3f3e
00000190: 57ae 563d 362c bc3d cec8 373e e101 f83c
000001a0: 278a bd3d cc3b 043e d4ca ee3d 09a0 3d3e
000001b0: 1d4c 41bd 83c5 073d e1d9 3c3e 5362 7b3d
000001c0: 0587 3c3d abc7 f0bd 43a3 f9bd 6b69 663d
000001d0: a4dd 743d 99c6 0b3d 648b 9e3d c119 363e
000001e0: 8897 f23d d26f a2bd ce24 d83d 4977 35bd
000001f0: 2ef5 243e 5699 193c 042a 073e 391a 35bd
00000200: 42bf 7c3d 9d0f babd 13d9 79bd 45de 933d
00000210: af70 03be 7b6e 4abb 4b25 b5bb 1187 793d
00000220: 2b93 d0bc 067f 42bd 857c 913d be9f 56bc
00000230: 7827 48bd e01e 49bd bf97 bebd aebb 21bd
00000240: 127b c4bd 1110 57bd eb6d b63d 141c 373c
00000250: 99a4 49bd 2438 b4bd f13d 8bbc 05f7 74bd
00000260: 0558 a1bd 04f1 083e 5c46 66bd 6ad9 bb3d
00000270: 07f1 d4bd d317 de3c 14be 073d 960a 033c
00000280: 86f8 e93c 98ec 5abd f98d 7c3d 550e 76bb
00000290: 6613 a93d 14e7 a8bc 4d58 50bd 815f f23c
000002a0: ae7c fe3c 7b3f d8bd 2b3f db3d a8af 04be
000002b0: 0571 fc3d 8932 02be 7324 b3bd a028 a43d
000002c0: 0b18 b23d 5141 c73d 47f3 cebd 3434 11bd
000002d0: 5dc0 debb bf37 0e3b c94d 22bd 97aa 1cbe
000002e0: 999f 5dbd 56cd e23d 60b1 27bc 4243 43bb
000002f0: 8c35 5e3d 3efc 9fbc a2e3 a53d 1470 12bd
00000300: f6a9 5a3b eb22 0fbc 6b0f b83d 4436 f6bc
00000310: 3e6a 46bd f9d5 d8bc ce94 973c e738 08bd
00000320: 7c5b 503b a453 2c3d d060 f63d 6b95 c0bd
00000330: be6a 0f3d ce3f cdbd 04b3 fb3d 3859 303d
00000340: e441 3a3d 9e9b 87bc 1755 973b aa97 ea3d
00000350: 1551 c53d 0de6 9dbc 7d4a 433e 473e aebc
00000360: 6eab f73d db45 9b3b cee1 8fbc bde7 843d
00000370: 9a6c cd3d ff66 a5bd 4d3a 0dbd 53f8 373e
00000380: 2b9e 22bc eb74 2cbd 9ad3 673d 1c78 be3d
00000390: 4871 a73b 3028 7dbd 16c0 97bd 6c66 033e
000003a0: 4712 52bd 1cee 59bd b071 0c3d 045b c33d
000003b0: ae86 e23d 3d2d 44bc ae7a 883d 1263 0abd
000003c0: a66a 6f3d a9f2 0abd 98d4 c3bd 753c 2bbd
000003d0: cd28 b2bd bf03 2ebd ba96 4abd 094a 08bc
000003e0: 488a 913b 0726 483d 1042 2f3d d493 013e
000003f0: 5c7f 073e 266c 3c3c 7193 08bc 3bbf 223d
0.08021591 0.027278854 -0.118410744 0.07919652 -0.017920513 -0.03919649 -0.04745613 -0.12836143
0.011175428 0.067532085 -0.0010484735 -0.00036383083 -0.022122411 0.040120203 -0.011739709 -0.0003179641
-0.040277664 0.15530266 -0.09381628 -0.009108936 0.04519619 -0.08289155 0.039976954 0.06060188
-0.070237525 0.11167479 -0.024570728 -0.020333605 0.0061194925 0.0843505 -0.053138748 0.025900146
-0.025932202 0.06505944 -0.07797248 -0.045091603 -0.059052024 0.16223232 0.12676837 0.19329171
-0.036100775 0.079993576 0.073131025 0.1412316 -0.07699457 -0.016529314 0.083546564 0.024194773
0.07327997 -0.1353893 -0.050930556 -0.113129534 0.060384825 0.109868154 -0.13788462 0.010659292
0.0338064 -0.10591335 0.11803851 0.042503335 -0.024504403 0.108756706 -0.031998016 0.05679556
0.06550836 -0.1278719 0.1772298 -0.05490157 0.09446925 0.17037565 0.12963724 0.0511723
0.0028703858 0.042693682 0.1577769 0.09395357 0.1294167 -0.030882137 -0.083323464 0.016991403
0.21104841 0.19024369 0.12400334 0.0044993074 0.219131 0.17346203 0.041893836 0.05968697
0.14109877 -0.014791842 0.13780123 0.051856775 0.15578334 0.17022844 0.114304096 0.22847539
0.011238081 0.037388183 0.15994972 0.18720624 0.052412357 0.0918812 0.17947695 0.030274333
0.09254866 0.12913436 0.1165978 0.1851808 -0.047191728 0.033147346 0.18442489 0.061373066
0.046027202 -0.11756834 -0.12189343 0.05625288 0.059781685 0.034124944 0.077414304 0.17783262
0.118453085 -0.07931484 0.10553895 -0.044303212 0.16109154 0.009374937 0.13199621 -0.04421446
0.061705835 -0.09085009 -0.060998034 0.07220129 -0.12835954 -0.0030888605 -0.0055281273 0.060919825
-0.0254608 -0.04748442 0.07103828 -0.013099609 -0.048865765 -0.04910171 -0.09306287 -0.039485626
-0.09593786 -0.052505556 0.08907684 0.011176128 -0.04922924 -0.087997705 -0.01699731 -0.05980589
-0.078781165 0.1337319 -0.056219444 0.09172328 -0.10397535 0.02711097 0.033140257 0.007998129
0.028560888 -0.05344829 0.061658833 -0.0037545164 0.08255653 -0.020618 -0.05086546 0.029586555
0.031065311 -0.10558983 0.10705408 -0.12957633 0.12326244 -0.1271459 -0.087471865 0.08015561
0.08695992 0.09729255 -0.10104995 -0.035450175 -0.006797834 0.0021700708 -0.039624963 -0.1529945
-0.054107282 0.11074321 -0.010235161 -0.0029794727 0.054250285 -0.019529458 0.08100058 -0.035751417
0.0033365465 -0.008736352 0.08987316 -0.030055173 -0.048441164 -0.026469218 0.018503573 -0.03325739
0.003179281 0.042071953 0.12030184 -0.09403499 0.035013907 -0.100219354 0.12290004 0.043053836
0.045472994 -0.016553696 0.004618298 0.11454709 0.09634606 -0.019274736 0.19071384 -0.02126993
0.120932445 0.004738552 -0.017563727 0.06489513 0.1003048 -0.080762856 -0.034479428 0.17965822
-0.0099254055 -0.04210369 0.056598283 0.09300253 0.0051099397 -0.061805904 -0.07409684 0.1283204
-0.051286962 -0.053205594 0.03428811 0.09538844 0.11060844 -0.011973676 0.06664024 -0.033785887
0.058451317 -0.033922825 -0.095620334 -0.041805703 -0.086991884 -0.04248404 -0.04946015 -0.008318433
0.0044415332 0.04886439 0.04278761 0.12654048 0.13232177 0.011500394 -0.008335934 0.039733153

hist_enc.bias_hh_l0 f4 [256]
00000000: 7c16 7dbc e569 003c c868 4bbc b19a 043e
00000010: 6220 7d3c f6df c03c f245 c1bd 4999 ffbd
00000020: fd55 293d d1a2 0c3e 4a6f 733b 6d41 b93d
00000030: 3e0f f9bd 91fc 3f3d dac8 caba 1080 3aba
00000040: d098 75ba 3485 7c3d d2b9 c73d 45fb ce3d
00000050: 5b41 72bd c853 7e3d 9ed5 03bd 1497 ce3c
00000060: c1e1 a63d 34d0 873c 722c ca3d e39a c7bd
00000070: af64 9a3d 6ce0 3abd bacc 9b3d f2df 823d
00000080: b7b8 493d bb1b b63c 0754 d53d 2023 df3d
00000090: 1a80 94bc 52dc 2abd c6a4 5e3c 9d29 0a3e
000000a0: e9b0 fcbd ebbe 1dbd ca32 0e3e 37ae 10bd
000000b0: 6465 113e 7e85 88bd e885 a03d c473 99bd
000000c0: 82ab 2f3d a8d0 f4bc 545e 303d 73c5 213c
000000d0: b852 063e 9542 783d 0536 c63d 6fe0 213c
000000e0: 8abe 09bd a13b 9a3d 7813 d63c b50d 313d
000000f0: 143e a23d b84f c63d 2b99 9a3d 0f62 053d
00000100: 2b0d b33d 9e2a 38bd eb16 483e 2281 373e
00000110: 6eaa 3b3d 3c33 86bd dac4 6c3d 3707 e33d
00000120: 92ff 8cbd 30a7 e8bb f120 05bc 852d a43d
00000130: 18f4 31bd 1001 a23d 36b2 943d 8052 8c3a
00000140: 54f2 3e3d 9a0f e4bb 97eb d2bc 7690 f23d
00000150: 333e b93d 457c 433d 8f06 1c3e 8b4a 12bd
00000160: 405b 88bd 8cd2 bebd 3c7f 973d 1824 27bd
00000170: a599 0c3e ace7 6f3c 947a 493d a242 f83d
00000180: 94db fdbd 8618 233e d650 393e 5ae0 c53d
00000190: 80d6 8cbd be6c 0a3e f5e0 6cbc 7aac 3a3e
000001a0: d7de 57bc 7b12 ab3d d543 9e3a 5476 0e3e
000001b0: d82f ca3c 7457 323d cb8a be3c d92b 133d
000001c0: 176b cc3d 1cf8 de3a 6639 b93d 8b59 40bc
000001d0: 4118 1e3e 5372 05bd 1aa7 a73d 027d bd3d
000001e0: 6452 e23c 8e58 4b3d 25e6 9c3d 4900 ef3c
000001f0: afdb 4a3e 2732 5cbd 7e11 16bd 10e1 2e3b
00000200: 40cb 943d 20fa 5cbd 02d6 3e3d 972d e5bc
00000210: 2132 8b3d 7eab 9b3d 1e74 8bbd 017d 1c3b
00000220: 101c d6bd 959e e4bc 0dd6 9abd 3722 54bd
00000230: d5ec 783c 5903 8abd e13e 54bd 4850 90bd
00000240: 21a1 043c 833c ddbd bbf4 b53d 9b97 41bd
00000250: a72a 58bd 34d9 9dbd bdd8 d3bd 5c20 b7bd
00000260: 01df 93bd b9bd 82bd b718 b13d a0e8 e63d
00000270: d7ee d7bd 02f6 063e 39d6 093c 8bb7 f23d
00000280: 0a3a b2bd 4b0d 99bb 1482 0e3d a29c e0bd
00000290: 9644 c63d e9f1 12bc eb96 a93d 3055 fbbc
000002a0: 1fce 30bd 4d9a 983d f588 653d e8f2 8d3d
000002b0: 11a5 f33c 062a 213d 31b4 00bd aeed f73d
000002c0: 5e3b be3d 152d d5bd 9059 d9bd b08c c4bd
000002d0: bd60 a0bd 0f0a 3dbd 029b a93d 2578 9dbd
000002e0: 2e4a 95bd aab4 433d 8181 dc3c 9369 dbbc
000002f0: a92f 2abd d108 bebc 246e 853c 1d51 8ebd
00000300: ed0b d53d 0b8c 28bd c16c a13d 9e8a 7ebd
00000310: 0259 003d 1ca3 853c c51d b9bd f0cf 5e3c
00000320: a0eb 59bb d9b6 c83d f982 ba3d ffb8 d23d
00000330: e6eb 45bd d8c5 7dbd 045b a73d c1ab ba3d
00000340: f0ab 883d 30fc fdbb 87ff ecbc 9a9e 7ebd
00000350: f31d b93d 5c82 713b 576c 2b3e 27e9 d4bd
00000360: a0d0 c2bd 062c 8cbd 51f9 f63d 38b7 e03d
00000370: 7a3c 6fbd 4aa6 893d 70e2 9bbd 7622 85ba
00000380: efdd a0bd f228 b33d 8577 a83d 40d7 07bb
00000390: 01f5 253d 23b6 803d b4fc f13d 28a4 8c3d
000003a0: d6ae b0bc df5c 313d 6836 7f3c 2a21 153e
000003b0: 8cde c63d c4e4 54bd 55d1 26bd a33b 2c3c
000003c0: 5a4f ad3d f091 72bd 3c87 de3d 0356 d0bc
000003d0: e320 0b3e 027d b7bc da11 b03d 16f3 943d
000003e0: 6e4f 283e ac5a 443d 94e1 5bbd 1ea3 793d
000003f0: 2f20 f1bc cd6a 9bbc 86fd b4bd 6040 953d
-0.015447255 0.007837747 -0.0124151185 0.12949635 0.015449615 0.023544293 -0.09437169 -0.12480409
0.04134177 0.13733985 0.003714519 0.09045682 -0.1216111 0.046871725 -0.0015471235 -0.000711442
-0.0009368779 0.06165047 0.09752239 0.101065196 -0.05914436 0.06209162 -0.032186143 0.025218524
0.08148528 0.016578771 0.098717585 -0.09746339 0.07538735 -0.04562418 0.07607408 0.063903704
0.049248423 0.02223002 0.104164176 0.108953714 -0.01812749 -0.04171402 0.01358909 0.13492437
-0.123384304 -0.03851215 0.13886562 -0.035322394 0.14198834 -0.066660866 0.078380406 -0.07492784
0.042888172 -0.029884651 0.04305871 0.009873736 0.13117492 0.060610373 0.09678272 0.009880169
-0.033628978 0.075309046 0.02613233 0.043225963 0.07921997 0.09683174 0.07548746 0.03256422
0.08742746 -0.044962518 0.19539993 0.17920354 0.04581683 -0.06552741 0.05780492 0.110853605
-0.06884684 -0.0071000084 -0.00812553 0.08016495 -0.043445677 0.07910359 0.072605535 0.0010705739
0.04661782 -0.0069598677 -0.025747104 0.1184396 0.09045067 0.047725935 0.15236877 -0.03571562
-0.066580296 -0.093175024 0.07397315 -0.040805906 0.13730486 0.014642637 0.049189165 0.12122084
-0.12395397 0.15927324 0.18097243 0.09661932 -0.0687685 0.13518044 -0.014457931 0.18229857
-0.013175688 0.08353134 0.0012074659 0.13912326 0.024681017 0.043540433 0.023259541 0.03593049
0.09981363 0.0017011198 0.09044151 -0.011740099 0.1543894 -0.03257973 0.08186169 0.09252359
0.027627178 0.049645 0.07661084 0.02917494 0.19810365 -0.053758767 -0.036637776 0.002668444
0.07265329 -0.053949475 0.046590813 -0.02797584 0.06796671 0.07601069 -0.06809257 0.002387822
-0.10454571 -0.027907649 -0.07560358 -0.051790442 0.015193184 -0.0673892 -0.05181778 -0.070465624
0.008095057 -0.10802557 0.08884569 -0.047263723 -0.05277505 -0.07707444 -0.10344074 -0.08941719
-0.07220269 -0.06383843 0.08647292 0.112748384 -0.10543602 0.13179782 0.008412891 0.11851414
-0.08702476 -0.004670774 0.03479202 -0.10967375 0.096810505 -0.008968809 0.082807384 -0.030680269
-0.043165322 0.074513055 0.056038816 0.06931096 0.029741796 0.039346717 -0.031421844 0.12105881
0.09288667 -0.10408989 -0.10612786 -0.095971465 -0.07830951 -0.04615217 0.082815185 -0.076889314
-0.07289539 0.047779717 0.026917221 -0.02678374 -0.04154936 -0.023197563 0.01628787 -0.06949065
0.10402665 -0.04114918 0.07882071 -0.062143914 0.031334884 0.016313128 -0.09038881 0.013599381
-0.0033252016 0.098005004 0.09107012 0.102891915 -0.048320673 -0.061956257 0.08171657 0.09114791
0.066734195 -0.0077510104 -0.028930439 -0.062162973 0.090389155 0.0036851382 0.16740547 -0.10396033
-0.09512448 -0.06844334 0.12059272 0.10972446 -0.058407284 0.0672117 -0.07611549 -0.0010157365
-0.078548305 0.08748044 0.082259215 -0.0020727664 0.040516857 0.0628474 0.118157774 0.06867248
-0.021567743 0.04330146 0.015576936 0.14563432 0.09710416 -0.05197598 -0.04072698 0.010512265
0.08462401 -0.059221208 0.10865638 -0.025431639 0.13586764 -0.022398476 0.08597155 0.072729275
0.1643655 0.047938034 -0.053681925 0.060946576 -0.029434292 -0.018971825 -0.08837418 0.07287669

dec.0.weight f4 [32, 64]
00000000: 5219 c7bc a10a c83c 2cda bdbd dc7f e63d
00000010: 5203 ba3d 7c1a aabc 0dcb a33b 797a f4bd
00000020: de8d 44bd 3059 2d3e a918 be3c 4fd5 303d
00000030: 9039 25bd 0334 223d 89ea dfbc 3055 80bc
00000040: 6a9f 193d d2f6 e5bd be8f 4a3c 4ec0 1fbd
00000050: 158b 8fbd 7581 833c d6d5 813c e182 2e3d
00000060: 99cd c73c a19d dfbd 26f1 37bc 5b10 b83d
00000070: d17d 8fbd aed1 ae3d 7bfc 9abd 7ca4 2ebd
00000080: eccc b8bd 024a 833d bea1 e7bd ba92 3d3d
00000090: 6d40 033e 7584 8b3d cf9b d53b 16f5 fa3c
000000a0: 0409 ff3c 587a 35bd 693f 8e3d 87e2 0fbe
000000b0: 7298 d9bd 142d 79bc 5ad1 24bc f29c 923d
000000c0: 14f5 f9bd dbf8 c53d ce82 d33d 25cf 82bd
000000d0: 962f 813d be88 d13d b0a1 adbd 98e9 7e3d
000000e0: 45d2 183e a4e5 6f3d 9e6e fcbd ba93 da3a
000000f0: 0fc9 09bc ab9f 1a3d 2e42 6ebb 177a 25be
00000100: 7bda 04be 3093 78bd 0e6d 2e3c a215 babd
00000110: 27cf 0b3d e235 b1bd c1b9 cf3c 6e68 a3bd
00000120: d996 ccbd bce4 bebc 904b ed3d 718e 65bd
00000130: bc90 74bd 2480 d73c 1d1a aebc 0eaf 683d
00000140: aa53 52bc 1ac1 8abd 63cf 103d 0622 5ebc
00000150: a876 d93d dc6b f43b f939 9f3d a596 a0bc
00000160: a06a f9bc 1b65 42bc 6298 533c 8dc8 5d3b
00000170: 929d 543d 061f b23c 2cb2 c03b e65b 9b3c
00000180: 4b3f fc3c 9577 0f3d d29d 963d 8507 82bc
00000190: 7708 a53d be0a 1f3d b202 d33d 33bb fdbd
000001a0: 7612 aa3d 736d b2bd ad71 4bbd 1948 133e
000001b0: 3652 393d bdbd 213d d9d2 d4bc 9a25 c8bd
000001c0: d8cd d43d 175b 49bd 9e42 e03d 463e c6bc
000001d0: 0860 afbd 36ce d3bd d0a7 a53d 85c2 bbbd
000001e0: 6867 4fbd 7f88 243d 2b8c dd3d 2b28 babc
000001f0: 90d5 e63c a3cd 8fbd 228f 933c b6ac 3c3d
00000200: 52aa 893d a978 0d3e 0de7 863d 0db0 48bd
00000210: 635c e3bd 4ab7 a43d e928 13be 9f7c 79ba
00000220: f71d ab3d 16c2 ab3d 891c 0fbd 94de 073e
00000230: 3816 42bd 6728 99bd 6b86 503d ee84 573d
00000240: 5aa7 8b3d 2481 283d 777f 053e cf88 a03c
00000250: 20e1 b4bc df2a 55bd 8570 a53d 593e a23c
00000260: 78f6 f83c 9490 9fbd 5e55 fabc de60 a63b
00000270: 28b1 b6bb 8571 c03d da01 653d 211b 02be
00000280: cce0 f1bd 0bd1 573d 43db 9abd 6129 943d
00000290: 69eb 5a3b b792 5b3d 9fa4 dbbd aaba f93d
000002a0: ae1d afbd 21d0 2b3e ef8d 9c3c 2447 72bd
000002b0: 5699 08bd 9754 8aba 7c48 fdbc 5f2b ed3d
000002c0: 6f19 b9bd 1495 f7bc 6ff8 9a3d 4e63 bebd
000002d0: cacd 77bd cdba ad3d 20ae d93d 45fb bc3c
000002e0: fd84 47bc f044 2f3c 4e82 f3bd d7ee cdbc
000002f0: 2972 9bbd e05c 57bd 5a2e d43d 7506 813b
00000300: 57fe a2bc 775c a03d dcc0 72bd 8dd0 393c
00000310: 611c ba3d 2f8d e9bd 76f4 e23d bd5e db3c
00000320: 3be0 76bd ccfd 0c3e ef5e 5d3c 5f4f e939
00000330: 32d0 5d3d 3a2c fd3b 4f06 943d 24fa 373d
00000340: bc94 3f3e d967 67bc 89f6 b13c 6554 f43d
00000350: 0814 83bd 324d d13d 4721 993d a71c 66bd
00000360: 45a2 933d ef4d c1bc dda0 acbc deb2 2d3e
00000370: c7c1 d7bc 421c 993c ab1f 983d 31cb 98bd
00000380: fbe9 dd3d 95da 9c3c cb93 96bd 8c52 743d
00000390: 1636 41bd d72a 733b 19f4 893d cfcc b7bd
000003a0: b6c1 ac3d 95bd 7cbd d786 fc3d 842b 00bd
000003b0: 54c4 373d 0d8f 5d3e d2fa c2bc 5254 babd
000003c0: 5c92 91bd 0b0f 50bd e422 93bd 1f08 1dbd
000003d0: 05c5 a4bd 9100 943d e440 b1bd d408 ad3d
000003e0: ee4b 09bd 5244 36bd 392f d63d 20c6 673d
000003f0: f71b 7fbd a273 1ebb 0e4c 5f3d 549e d3bd
-0.024304066 0.02441913 -0.092701286 0.11254856 0.090826645 -0.020764582 0.004998571 -0.11937422
-0.047986858 0.16928554 0.023205118 0.043172177 -0.0403381 0.039600383 -0.027333515 -0.01566562
0.037505545 -0.11228718 0.012363372 -0.039001755 -0.0700895 0.01605294 0.015849035 0.042605285
0.024390029 -0.10918737 -0.011226928 0.089874946 -0.070064195 0.08536087 -0.07567688 -0.042637333
-0.09023461 0.064106 -0.11310147 0.046282507 0.12817545 0.068123735 0.006518818 0.030634444
0.031132229 -0.04430613 0.06945688 -0.14051257 -0.1062478 -0.015208501 -0.010059679 0.07158841
-0.12204948 0.09666606 0.103276834 -0.06387166 0.063079044 0.102311596 -0.08478105 0.06223449
0.14923961 0.05856861 -0.12325786 0.0016676106 -0.0084097525 0.037749927 -0.0036355364 -0.16159855
-0.12973969 -0.060687244 0.010646118 -0.090861574 0.034133103 -0.086528555 0.025357129 -0.07978903
-0.099897094 -0.023302428 0.11586678 -0.056044046 -0.059708342 0.02630622 -0.021252686 0.05680757
-0.01283733 -0.067751125 0.03535403 -0.0135579165 0.10618335 0.007459147 0.07774729 -0.019603083
-0.03044635 -0.011864926 0.012914749 0.0033841461 0.051908083 0.021743309 0.0058806147 0.018964719
0.0307919 0.03502615 0.073543206 -0.015872726 0.08058255 0.038828604 0.103032485 -0.12389221
0.083043024 -0.08712282 -0.049668957 0.14382972 0.045244418 0.03948759 -0.025979446 -0.09772797
0.10390824 -0.049159136 0.10950206 -0.024199616 -0.085632384 -0.10342066 0.08088648 -0.09167961
-0.050635725 0.040169235 0.108177505 -0.022724232 0.028178006 -0.07021644 0.018012587 0.046063147
0.06721939 0.1381556 0.06587038 -0.04899602 -0.11101606 0.08042772 -0.14371075 -0.0009517166
0.08355325 0.08386628 -0.034939323 0.132685 -0.04738447 -0.07478409 0.05090944 0.052617006
0.06819029 0.041138783 0.13036905 0.019596485 -0.022080004 -0.05204284 0.08078102 0.01980512
0.030390963 -0.07791248 -0.030558284 0.0050774654 -0.005575318 0.09396652 0.05590997 -0.12705661
-0.11810455 0.052689593 -0.07561352 0.07234455 0.0033404476 0.053606715 -0.10724758 0.121938065
-0.08550583 0.16778614 0.019110648 -0.059149876 -0.033349358 -0.0010553774 -0.030918352 0.11580538
-0.09038054 -0.030222453 0.07566916 -0.092962846 -0.06049899 0.08482895 0.10628915 0.023069033
-0.012177703 0.010697588 -0.11890088 -0.025138302 -0.07590134 -0.052578807 0.10360403 0.0039375373
-0.01989667 0.07830136 -0.059265956 0.011341226 0.09087444 -0.11403882 0.110817835 0.026778573
-0.060272437 0.13768691 0.013511403 0.0004450036 0.05415363 0.0077262195 0.07227766 0.044916287
0.18709081 -0.01412388 0.021724002 0.119301595 -0.06400305 0.10219802 0.0747705 -0.05617967
0.07208685 -0.023596732 -0.0210728 0.16962764 -0.026337517 0.018690232 0.07427915 -0.07460631
0.10835644 0.019147197 -0.07352408 0.059649035 -0.04717072 0.0037104392 0.06736011 -0.08974611
0.08435385 -0.061704237 0.12330406 -0.0312915 0.044864967 0.21636601 -0.023801241 -0.09098114
-0.07107994 -0.050795596 -0.07184389 -0.038337823 -0.08045391 0.072266705 -0.08654955 0.084489495
-0.033519678 -0.04449875 0.10458226 0.05658543 -0.06228253 -0.002417781 0.05451589 -0.10332933

dec.0.bias f4 [32]
00000000: 7ad6 aabd 05c8 e93c 5a9d 09be d142 483d
00000010: 43a3 483c 598d af3d 76af acbd 7fb6 8a3a
00000020: 9139 39bb 7541 9fbc 5e00 58bd c154 b33d
00000030: 35bc e83c 7760 883d f638 1bbd 12bd c6bd
00000040: 9ad7 883c 29a5 44bc ac9c dbbd bcac f8bd
00000050: b6e3 b53d dd53 a63d 48c8 f13d 7386 d1bc
00000060: e9b8 00be 5f80 39bd c29a 08bd 4cd0 e73d
00000070: a065 06be 12b3 63bd f61d 193d ab26 af3d
-0.083416894 0.02853776 -0.13438931 0.048891846 0.012245956 0.08571882 -0.08431904 0.0010582953
-0.0028263072 -0.019440392 -0.052734725 0.087564 0.028410057 0.06659024 -0.03789612 -0.09704031
0.01670437 -0.012002268 -0.10723242 -0.121423215 0.08881323 0.081214644 0.11805779 -0.025576806
-0.12570538 -0.04528844 -0.033350714 0.11319026 -0.13124704 -0.055590697 0.03738209 0.08552297

dec.1.weight f4 [32]
00000000: e81d 7f3f 3c68 7d3f 4adc 7a3f 59b5 883f
00000010: 38e8 7b3f aaa6 803f 72cf 783f e6e2 793f
00000020: 13dc 833f 7fa2 7e3f c0a7 783f 8a42 7f3f
00000030: 8087 7c3f ae2f 7f3f bfec 843f 0f7a 793f
00000040: b480 783f 0a1d 803f 961f 823f 31bd 843f
00000050: 0533 7b3f 3c08 813f 7e4b 863f a498 7e3f
00000060: 4f68 843f 2d20 863f 8380 7d3f cbcc 7e3f
00000070: d78e 773f aefe 7e3f 24a2 823f 33fc 7b3f
0.9965501 0.98987174 0.97992384 1.0680343 0.9840121 1.0050862 0.97191536 0.97611845
1.0301536 0.994667 0.97130966 0.99710906 0.98644257 0.9968213 1.0384749 0.9745187
0.97071385 1.0008862 1.0165889 1.0370237 0.98124725 1.0080638 1.0491788 0.9945166
1.0344332 1.0478569 0.9902422 0.9953124 0.9670233 0.9960736 1.0205731 0.984317

dec.1.bias f4 [32]
00000000: 8092 083d 3ef7 623b e542 263d 7ab1 3e3d
00000010: c123 f33c 3223 e5bc b443 9b3c a758 00bc
00000020: bf19 e23c 0e5d 113c 1163 25bc fc38 3c3d
00000030: e0d4 f2bb bfa1 68bb 061e 5d3d b315 b2bc
00000040: 085d b33c a675 613c cb78 1b3d 16cf d4bc
00000050: ef60 9fbc 4c93 413c b527 693c 4d81 20ba
00000060: 7b68 b03b 6dd4 d4bc 11be 1c3d e2ef 06bd
00000070: dae0 a8bb 9a97 fdbc 1770 cbbc 692c 853c
0.03334284 0.003463223 0.04059114 0.046555974 0.029680135 -0.027970884 0.018953182 -0.007833636
0.027600167 0.008872284 -0.01009442 0.045952782 -0.0074106306 -0.0035496799 0.05398371 -0.021738863
0.021894947 0.01376096 0.037956994 -0.025977653 -0.019455401 0.0118149035 0.014230658 -0.0006122783
0.005383549 -0.025980199 0.0382672 -0.032943614 -0.0051537575 -0.030956078 -0.024833722 0.016256528

dec.1.running_mean f4 [32]
00000000: 9419 d2bd bc19 60bd 7fda c4bd e8ed 58bd
00000010: d4bd 09bd 3c94 b93c 3201 58be 3c65 e0bd
00000020: 966d efbd 7255 993d 6d11 e2bd 9889 80bc
00000030: 332b 36bd 34f2 52bc d515 eabd a0cf 1bbe
00000040: 4873 053e 0eb2 04be ef50 c7be e115 eebd
00000050: 602d af3d 351a 4b3d 5ed8 e83d f106 b2bd
00000060: 81da 3ebe 0af3 713d 4ce1 0a3d 8c98 8e3e
00000070: c5d3 cdbc a333 d6bc 1da8 233e 3d4f 873e
-0.10258785 -0.054712042 -0.09611987 -0.05296126 -0.0336283 0.022653691 -0.21094206 -0.10956809
-0.11690824 0.074870005 -0.1103848 -0.01569061 -0.04447479 -0.012875129 -0.114299454 -0.15215921
0.13032258 -0.12958547 -0.38928935 -0.11625267 0.085535765 0.04958554 0.11369394 -0.0869273
-0.1863804 0.05906967 0.033906266 0.2785076 -0.025125394 -0.02614767 0.15982099 0.26427642

dec.1.running_var f4 [32]
00000000: d998 2b3d c046 ab3d e148 7e3d dcd2 623d
00000010: 986a 5a3d c255 913d e133 ef3d 92d9 a63d
00000020: cda1 933d c281 7f3d 71c6 6c3d da4e a33d
00000030: f48f ec3c 9c4a 423c 1d65 663d 75c4 dd3c
00000040: 7703 a03d b8b3 783d 1d82 613d dccd 213d
00000050: 2bb4 9a3d db1c 4b3d c2d0 083d d91b 143d
00000060: 004d 663d 4e5f 503d f0d4 e23d 692e 4e3d
00000070: fdf2 1c3d cb3e 853c d368 b43d 7cf3 4d3d
0.041893814 0.08363104 0.06208122 0.055376872 0.053324312 0.07096435 0.11679817 0.08146967
0.072085954 0.062379606 0.057806436 0.07974024 0.028877236 0.011858609 0.056248773 0.027071217
0.07813161 0.06071827 0.055055726 0.039502963 0.075538956 0.049588066 0.033402212 0.03615937
0.056225777 0.05087214 0.11075771 0.05033723 0.03831767 0.016265294 0.08809056 0.050281033

dec.3.weight f4 [8, 32]
00000000: ab9b d0bd 5ef7 353d 2ea9 91bd d606 f23d
00000010: b928 e9bd 4db9 183e 987f db3d 2541 3f3e
00000020: ebf5 fe3d 1645 f2bd 8394 bd3d 6522 8e3b
00000030: 5ab6 8d3b 2dc9 e5bd e9fe 933c 5edf 1c3e
00000040: c419 25bd 368c a23b 22c9 8d3d 6f8a 0bbe
00000050: 4720 783d 9429 ba3c e09c b4bd 2334 133e
00000060: 3e74 b53c 430d 2fbe fb57 28be 1469 29be
00000070: de5b 69bd 1d4d 2e3e ebd1 1fbe 3bb8 06be
00000080: d541 84bd ce29 de3d e4d0 7ebd 7841 873d
00000090: f3ca 4e3c a6bc 203e 1b3a a33a 52b1 843d
000000a0: 2a85 993d 5121 77bc b4dd d03d cb47 013d
000000b0: 0272 d4bc bd43 093e 4b00 853d c858 973d
000000c0: 2c6d 7fbd 3755 5b3d 47cc 423e 5e43 c0bd
000000d0: 9278 a8bd f7b4 f03d 4a64 00bc 1999 223d
000000e0: d13c bdbc 774c d8bd e133 b8bd 9bc1 c4bd
000000f0: f929 fabd 007a 0a3e 10c1 14be 7bd7 f8bd
00000100: 0815 52be 9182 123e 8b58 74bd f7f6 a5bd
00000110: 0a0b 463e 6675 0ebd e05e 063e 77e8 82bb
00000120: 677b 253d d72c 1abe 0937 e93b 2e05 1bbb
00000130: 7d7f 693d 1599 ddbc b13e 43bd c31a 0e3e
00000140: e4c9 2f3e 5b26 20be f67f 7e3d cb0e a13d
00000150: d6c1 cf3d 0490 3fbd 76f1 743d 97ca 0c3d
00000160: aa3a 3a3e d1de f1bc 301c 6bbc 900e 3d3d
00000170: 1934 c4bd fda0 013e 732d 893d 5d14 f3bc
00000180: 32b6 58bd bcf4 073d b39b 023e 7ed9 fdbd
00000190: 7ce6 c2bd 3471 90bd dfaa f7bc 19f4 28be
000001a0: 1ed3 23bd fe75 683d dc4e d2bd e5ac 12be
000001b0: 23f7 083e b06d efbd 41f7 61be 365f c3bd
000001c0: bcfb d63d a09d 1fbe ad74 88bd bb52 113e
000001d0: 47ee bc3c d286 483d 0009 043d 1f7d 1abd
000001e0: d965 49bd f796 af3d 2470 cebb 3148 053e
000001f0: c12a e13d ef7b 85bd 7455 a7bb d7fb f63d
00000200: 7f7b 463d 5e31 1abe d2d5 af3d 7953 6abc
00000210: 3ee4 33bd d161 8cbd 939d fabd cd6d 4cbc
00000220: 8c60 94bd 9893 513e 3bca a9bd bc5e dabd
00000230: 465c c0bd f5c3 03be c386 fcbd 6728 05be
00000240: aa8c dbbd b970 073c d3f3 afbd 8e8c ac3d
00000250: ddfd ac3d e154 babd dff6 70bd 1d66 8e3d
00000260: 727c 18be 6459 5ebb d190 423e 5d94 d6bd
00000270: f5c8 443e 59d6 94bd d110 1dbd d749 453b
00000280: abb2 2bbe 9e84 07bd 7e5e 84bc 707a f5bd
00000290: 3ccc 7d3d b682 373d 8abe 9dbd 5560 c73d
000002a0: 1634 123e 4d40 0d3d a785 a93d 3a8d d33d
000002b0: 6fea 263e fb5a 133e 6447 16be cd7f 743d
000002c0: 7ff8 c43c dd0b 6fbd 0e59 f5bd fd83 c33c
000002d0: 693a 683d c8e6 0abe 1248 023e 7fb6 d3bd
000002e0: fde6 233d da67 df3d d1a4 edbd 8bd4 013e
000002f0: 30d4 8fbb a144 f7bc 8513 053e 35e2 e73c
00000300: 722e ab3b b58a fd3c 2d96 ac3c 38f4 27bd
00000310: 0e3d ceba d3ea e33b 96a9 b53d 45ec 7dbd
00000320: e969 023d 1a06 5f3c 7a06 b63d d2a4 8f3d
00000330: 48b5 293e e443 a43d 4cfa 1e3d f991 f5bb
00000340: 3226 3c3e bf6b 21be 1824 22bd 1be8 523d
00000350: 2ad2 4a3e 4f61 27be d7c8 e73d 8312 3bbe
00000360: 1378 653d fe19 ed3d 679d d8bc e73c 923c
00000370: 089f 11bc d58d d13d 606b 293e cbbf c1bd
00000380: b7e1 f13c 936e 13be eda5 313e 6fab b03d
00000390: 2925 2abe f58a b6bd 4467 32be fb2a 89bd
000003a0: ec85 cbbd d9dc 4bbc f7db edbd 3da7 15be
000003b0: 7e2e f3bc 8442 2abe 52bd 1b3d 6e96 d23d
000003c0: 93fc 7bbc ec87 503d f8d7 133e 9820 9a3d
000003d0: e1b3 4bbe c698 353e fa66 debd 5198 1f3e
000003e0: 1354 d3bc 1105 553c e8d1 ad3a 372c 7cbd
000003f0: 7577 cfbd b472 7c3d 4645 3b3c 57fc 033e
-0.10185941 0.04442536 -0.071123466 0.1181771 -0.1138472 0.14914437 0.10717696 0.18677194
0.12449249 -0.11829583 0.09256842 0.0043375962 0.0043247165 -0.11220012 0.018065887 0.15319583
-0.040307775 0.004960562 0.06923129 -0.13627027 0.060577657 0.022724904 -0.08818984 0.14375357
0.022150155 -0.17094903 -0.16439812 -0.1654399 -0.056972377 0.17021604 -0.15607421 -0.13156216
-0.06457869 0.10847817 -0.062210932 0.06604284 0.012621629 0.15696964 0.001245323 0.06479134
0.07496102 -0.015083627 0.101985365 0.031562608 -0.02593327 0.13404746 0.064941965 0.073899806
-0.062359974 0.053548064 0.19023238 -0.09387849 -0.08226122 0.11753266 -0.007836411 0.039696787
-0.023100289 -0.105614595 -0.0899427 -0.0960724 -0.12215037 0.13523102 -0.14526772 -0.12150475
-0.20515835 0.1430762 -0.059654754 -0.081037454 0.19340149 -0.03477993 0.1312213 -0.003994997
0.04040089 -0.15056168 0.0071171564 -0.002365421 0.057006348 -0.027050534 -0.04766721 0.13877396
0.17166859 -0.15639631 0.06213375 0.0786415 0.10144393 -0.046768203 0.059800588 0.034372892
0.18186441 -0.029525192 -0.014349982 0.046156466 -0.09580249 0.12659068 0.06698122 -0.029672796
-0.05290813 0.03319238 0.12754707 -0.12394999 -0.09516618 -0.07052842 -0.030232845 -0.16499366
-0.03999626 0.05675315 -0.102689475 -0.14323767 0.13375525 -0.11690843 -0.22066976 -0.095396444
0.10497233 -0.15587473 -0.06662879 0.14191715 0.023062838 0.0489567 0.032235146 -0.03771698
-0.049169395 0.08573716 -0.0062999893 0.1301582 0.10994483 -0.06517779 -0.0051066224 0.120597534
0.04845762 -0.15057895 0.08585705 -0.014302128 -0.04391884 -0.068545945 -0.12237086 -0.01247735
-0.07244977 0.20466459 -0.082905255 -0.106626004 -0.093926 -0.1286772 -0.12330391 -0.13003694
-0.10720189 0.008266621 -0.08591428 0.08425246 0.08446858 -0.090982206 -0.058829185 0.0695307
-0.14891222 -0.0033927793 0.19000556 -0.10477517 0.19217284 -0.07267446 -0.038346115 0.0030103826
-0.16767375 -0.033085458 -0.016158339 -0.11986244 0.06196235 0.04480239 -0.07702358 0.09735171
0.14277682 0.03448515 0.08277445 0.10329671 0.16300367 0.14390175 -0.14675671 0.059692193
0.024044273 -0.058360923 -0.119798765 0.023866648 0.05669633 -0.13564599 0.12722805 -0.10337543
0.04001521 0.1090848 -0.11603702 0.12678735 -0.0043893084 -0.030184092 0.12995727 0.028306106
0.0052240426 0.03094993 0.021067703 -0.04100439 -0.0015734748 0.0069554835 0.088702366 -0.061992902
0.031839285 0.013612295 0.08887954 0.07013859 0.1657306 0.080207616 0.03881292 -0.007494208
0.18373945 -0.15763758 -0.039585203 0.051490884 0.19806734 -0.16345714 0.11317604 -0.1826878
0.056022715 0.11577223 -0.026442243 0.017851306 -0.008888014 0.102321304 0.16544867 -0.0946041
0.029526575 -0.1439765 0.17348452 0.08626448 -0.16615738 -0.08913223 -0.17422205 -0.06697651
-0.09937653 -0.012442791 -0.116142206 -0.14614578 -0.029685255 -0.16626936 0.038022347 0.102825984
-0.015380043 0.050910875 0.14437854 0.07525748 -0.19892837 0.1773406 -0.10859485 0.15585448
-0.025796926 0.013001696 0.001326141 -0.061565604 -0.101302065 0.061632827 0.01143009 0.12889229

dec.3.bias f4 [8]
00000000: ebc0 d83d d92b 203e fb0c 44bd c6ad 27be
00000010: 356d b43d 44cf 12be 343e ee3d 773b 00be
0.10583671 0.15641727 -0.04786394 -0.16374883 0.08809892 -0.14336878 0.11632958 -0.12522684

dec.4.weight f4 [8]
00000000: a855 a53f c9ce a93f 2643 a13f ae2c a83f
00000010: ff63 a23f 9b2e a73f 7d7d ab3f f4c1 a43f
1.2916765 1.3266231 1.2598617 1.3138635 1.2686766 1.3061098 1.3397671 1.287169

dec.4.bias f4 [8]
00000000: aea9 6bbd 4e64 81bd 0ce7 83bd ec00 853d
00000010: 74f6 8b3d 43c6 72bd 1df3 80bd 86bb 803d
-0.057534866 -0.0631796 -0.06440553 0.064943165 0.068341166 -0.05927111 -0.0629637 0.06285767

dec.4.running_mean f4 [8]
00000000: 81be d23d bc1f 2a3e c3a4 7bbd c3e6 46be
00000010: 9601 a93d c501 39be 6149 da3d 42ae fcbd
0.10290242 0.16613668 -0.061436426 -0.19423966 0.082522556 -0.18067081 0.10658527 -0.123379245

dec.4.running_var f4 [8]
00000000: 44a0 9040 f49a 5940 aa85 4440 b242 5f40
00000010: 4f17 7340 a980 4640 b68a 4c40 370d 5f40
4.5195637 3.4000826 3.0706582 3.4884458 3.7982976 3.1016028 3.1959662 3.4851816

dec.5.weight f4 [2, 8]
00000000: 4350 cabe 5122 b8be ac90 06bf 04f9 d53e
00000010: d80f 0d3f 485d a0be 6b20 8cbe 3bed d83e
00000020: 9c82 ff3e 1d70 dd3e 36a6 8bbe 5cd1 f6be
00000030: 65b2 0dba 7b8a cfbe 59c7 acbe d2b0 a03e
-0.3951436 -0.3596368 -0.525645 0.41791546 0.551023 -0.31321168 -0.27368483 0.42368492
0.49904335 0.43249598 -0.27275246 -0.48206604 -0.0005405306 -0.4053534 -0.3374584 0.31384903

dec.5.bias f4 [2]
00000000: a431 8ebe 3553 073e
-0.27772248 0.13215335
